Online-3D-BPP-PCT-main/logs/experiment/Discrete_A2C_1-5Box_10x10x10Bin_s42-2022.08.11-04-49-30/PCT-Discrete_A2C_1-5Box_10x10x10Bin_s42-2022.08.11-04-49-30_2022.08.11-04-49-33.pt (torch, 236314 bytes, 24 tensors)

actor.init_internal_node_embed.0.module.weight f4 [32, 6]
-0.057219014 0.51483357 -0.07244176 0.09075664 -0.14472513 0.00076564396 0.030582089 0.40446264
-0.4594659 0.051016778 -0.29599056 -0.29384893 -0.5522559 0.13438475 -0.18933883 0.76339877
-0.5805584 -0.004112012 -0.43630028 -0.1184322 -0.24564813 0.17071518 0.1362179 0.37559587
0.9524267 0.11628745 0.10334919 -0.18519564 -0.2001804 0.24895643 0.09387175 0.106957726
-0.21706972 -0.06905698 -0.19161396 -0.2652977 -0.37055603 0.13799497 0.1889462 0.23176612
-0.3971541 -0.15975317 0.024756525 -0.2447057 0.13812543 0.062617965 -0.43330562 0.041470267
-0.44293147 0.24441215 -0.5746275 0.42831063 0.24620281 0.10783337 0.5744096 -0.017749831
-0.30197358 0.7695537 0.18718785 -0.2939761 0.0036327203 -0.005000893 0.55692345 0.23862258
0.4722025 -0.7277182 -0.1076038 -0.19587582 0.10644079 -0.123773724 -0.065711886 -0.29214954
1.053686 0.26938683 -0.056944855 -0.09618576 -0.24244793 -0.069531165 0.9278979 0.66333693
-0.14350833 -0.17809469 -0.003941644 -0.36443508 0.060604893 0.27816376 -0.44191372 -0.10125948
0.061252255 -0.15398473 -0.30156368 -0.22816001 -0.20698342 0.21653304 0.2738547 -0.18479216
0.0022878048 0.07190962 0.23327816 -0.5774292 0.07439522 0.5002197 -0.5523639 0.16879946
0.6132881 0.8523865 -0.66380066 -0.37549558 -0.065698504 -0.09261602 -0.7530753 0.15789035
0.17717077 0.067808114 0.7867444 -0.48258853 -0.1538667 -0.6170379 0.2572682 0.06574424
0.5862969 0.6909876 -0.4752715 -0.16768445 -0.2869432 -0.43703046 -0.15363055 -0.091802016
-0.3586557 0.36268806 -0.077176794 -0.5172585 -0.22753835 -0.34230736 -0.6668091 0.2138529
0.13519326 0.12993056 -0.26598454 -0.54062194 -0.5465059 -0.05541042 -0.047066383 0.82742214
-0.31078088 -0.37712407 0.7752458 0.5291842 0.26791942 -0.014062922 0.32007697 0.2822661
0.71401656 -0.5526294 -0.15237103 0.10306133 -0.24884462 0.0558369 -0.39546826 -0.19087642
0.495265 -0.18785311 0.15065783 0.3994232 0.5232812 -0.3610657 0.0029790746 0.06926599
-0.38563567 -0.8192196 -0.09070646 0.33009768 0.305874 -0.5015359 -0.0892695 -0.15872744
0.493662 -0.5775875 0.3025302 0.08460565 0.10123592 -0.00019974762 -0.34505486 0.04041592
0.13331068 -0.5585237 0.12643038 0.112066045 -0.119812906 -0.09946798 -0.046762753 -0.021975221
00000000: 7c5e 6abd 22cc 033f 585c 94bd 9ede b93d
00000010: d332 14be 7fb5 483a 4a87 fa3c ba15 cf3e
00000020: 1d3f ebbe f8f6 503d 138c 97be 5e73 96be
00000030: a560 0dbf 289c 093e 0ae2 41be 1a6e 433f
00000040: 7a9f 14bf 0fbe 86bb c062 dfbe 958c f2bd
00000050: 2f8b 7bbe f6cf 2e3e b57c 0b3e 1a4e c03e
00000060: 3cd2 733f 1d28 ee3d bda8 d33d eda3 3dbe
00000070: 17fc 4cbe 6fee 7e3e d53f c03d a70c db3d
00000080: 8647 5ebe bf6d 8dbd 7336 44be 1ad5 87be
00000090: 85b9 bdbe 8e4e 0d3e 1d7b 413e 1954 6d3e
000000a0: c857 cbbe 5696 23be 32ce ca3c 2294 7abe
000000b0: c170 0d3e d93d 803d 3cda ddbe badc 293d
000000c0: eac7 e2be 2e47 7a3e ca1a 13bf 884b db3e
000000d0: 971c 7c3e bed7 dc3d 820c 133f 1868 91bc
000000e0: 489c 9abe 7901 453f 2cae 3f3e 0984 96be
000000f0: ef12 6e3b 88de a3bb 8992 0e3f 7a59 743e
00000100: 87c4 f13e bd4b 3abf 625f dcbd ac93 48be
00000110: a1fd d93d 147d fdbd f493 86bd a094 95be
00000120: 2fdf 863f 12ed 893e 023f 69bd 0afd c4bd
00000130: 4544 78be 5b66 8ebd b78a 6d3f 73d0 293f
00000140: d9f3 12be 745e 36be e828 81bb 3c97 babe
00000150: d63c 783d 7b6b 8e3e 8442 e2be 2161 cfbd
00000160: a5e3 7a3d 2cae 1dbe 8e66 9abe c7a2 69be
00000170: 76f3 53be d6ba 5d3e af36 8c3e 283a 3dbe
00000180: ffee 153b 5a45 933d 78e0 6e3e 66d2 13bf
00000190: 855c 983d 660e 003f b867 0dbf c4d9 2c3e
000001a0: 7300 1d3f 0036 5a3f d7ee 29bf f540 c0be
000001b0: f08c 86bd 78ad bdbd 8bc9 40bf 02ae 213e
000001c0: 416c 353e fbde 8a3d 1568 493f d815 f7be
000001d0: 3b8f 1dbe 32f6 1dbf a8b8 833e eba4 863d
000001e0: 8e17 163f 90e4 303f c956 f3be 79b5 2bbe
000001f0: 38ea 92be 75c2 dfbe 5451 1dbe b202 bcbd
00000200: b8a1 b7be 40b2 b93e de0e 9ebd 0e6b 04bf
00000210: d0ff 68be e942 afbe 00b4 2abf 41fc 5a3e
00000220: 1a70 0a3e 840c 053e 202f 88be 3366 0abf
00000230: d0e7 0bbf 09f6 62bd aec8 40bd f0d1 533f
00000240: ac1e 9fbe 6816 c1be 8276 463f 9e78 073f
00000250: bc2c 893e 2c68 66bc 21e1 a33e 2f85 903e
00000260: cac9 363f 1f79 0dbf 2707 1cbe d211 d33d
00000270: 20d1 7ebe 3cb5 643d d17a cabe 1c75 43be
00000280: 6093 fd3e 915c 40be 0c46 1a3e 3381 cc3e
00000290: c2f5 053f 9add b8be 943c 433b 54db 8d3d
000002a0: 0a72 c5be 60b8 51bf 4fc4 b9bd 9002 a93e
000002b0: 849b 9c3e a864 00bf edd2 b6bd 7289 22be
000002c0: 44c1 fc3e c6dc 13bf 3de5 9a3e ba45 ad3d
000002d0: c754 cf3d 5873 51b9 08ab b0be 2a8b 253d
000002e0: 9882 083e 69fb 0ebf f776 013e e282 e53d
000002f0: 7860 f5bd deb5 cbbd 4d8a 3fbd 6105 b4bc

actor.init_internal_node_embed.0.add_bias._bias f4 [32, 1]
0.008552337 -0.0028736442 -0.011697145 0.061576713 0.14878385 0.058804926 -0.17190166 0.029356118
0.102448836 0.14748079 -0.0013632289 -0.24365258 0.020758191 0.03490825 -0.022549607 0.040192347
0.10230777 0.07719957 0.03321589 0.017454589 -0.07891644 0.000386937 -0.0452928 0.0010255835
0.06382102 0.029829232 -0.061849397 0.04784542 0.007930862 -0.05066248 -0.047629096 -0.023811465
00000000: 1a1f 0c3c c053 3cbb 62a5 3fbc dd37 7c3d
00000010: cb5a 183e 6fdd 703d fd06 30be 3e7c f03c
00000020: b2d0 d13d 3405 173e 5fae b2ba 1080 79be
00000030: 150d aa3c f4fb 0e3d f4b9 b8bc bba0 243d
00000040: bc86 d13d cf1a 9e3d 630d 083d edfc 8e3c
00000050: f19e a1bd cedd ca39 f184 39bd df6c 863a
00000060: 98b4 823d 6f5c f43c cb55 7dbd 8ff9 433d
00000070: 72f0 013c 7683 4fbd ba16 43bd 4310 c3bc

actor.init_internal_node_embed.2.module.weight f4 [64, 32]
-0.35676077 0.064552 -0.24039571 0.11785896 0.52318394 0.29816434 0.03750691 0.20124759
-0.118759915 0.27909818 -0.069800235 0.017799098 0.004927108 0.20263608 0.16224414 -0.18477537
0.34730545 -0.118548475 -0.21972232 0.07080906 -0.11014759 -0.116885655 -0.15711468 -0.36486706
-0.011829403 0.4617811 0.3125747 0.50446796 -0.19801901 -0.32432303 -0.22578374 0.17212158
-0.07467562 -0.38342175 -0.37458053 0.073194675 0.105782904 0.2942679 -0.02389963 0.45276776
0.07815603 0.027384492 0.25021717 -0.14001723 0.03237952 0.10235119 -0.016213281 -0.08463641
0.2574523 -0.15664479 -0.25732356 -0.12670423 0.55940753 0.09515152 0.06737138 -0.052748606
0.0051443703 0.17672993 -0.09024749 0.22047068 -0.4276174 0.33396286 0.35139176 0.078675285
0.38246763 0.019381596 -0.1314445 -0.030026723 0.07640344 0.24771205 -0.271639 -0.18049528
-0.24789704 0.1466993 -0.025666699 -0.10138187 0.64524007 0.028059624 -0.0012107486 -0.013709259
-0.008345992 0.3422943 -0.12756427 0.31019977 -0.43675953 0.046280026 0.08535777 -0.2588685
-0.28826773 0.34185085 -0.4295736 -0.402645 0.01592936 -0.053972136 0.1712399 0.1453219
0.10794344 0.446249 0.05079538 0.0013692243 0.25782904 -0.28269458 -0.30016026 -0.06543269
-0.08188912 -0.15086703 0.038861156 0.34720632 -0.0047156746 -0.3173652 -0.0040130774 -0.17249864
0.12616804 -0.39285412 -0.122349925 -0.24194683 -0.1599788 -0.042896528 0.133843 0.28986928
0.3373354 0.20046335 0.05447034 0.29032353 0.22255741 0.28709587 0.18821529 0.07185545
-0.32379833 0.12164526 0.27782542 -0.20785083 -0.01708523 -0.04737615 -0.103280485 -0.010834898
0.06516214 0.14019562 0.29841948 -0.067587666 0.15467705 0.34488496 0.23194425 0.11487123
0.08246578 0.27106878 0.021523606 -0.11858595 0.041528173 0.013253371 0.4278311 -0.44605422
-0.3883005 0.1746013 0.05019832 0.17263915 0.3646215 0.025633978 0.00025946382 -0.11126741
0.07059349 0.00034523167 0.02403141 0.28992054 -0.080788985 -0.091875054 0.27318332 -0.515319
0.49544954 -0.3090101 0.22962335 0.2166837 0.279436 -0.0290612 0.28462654 -0.029710403
-0.15260649 -0.06885092 0.29749027 0.039971758 0.19552217 -0.11091024 -0.1937062 0.060434252
-0.56120944 -0.46004042 -0.080755144 -0.6253713 0.02463299 0.13307056 0.13276394 -0.06324705
0.22338407 -0.2659724 -0.049150676 0.20890567 0.42541808 -0.00538097 0.0032996628 -0.13918832
-0.1872086 0.19328535 -0.44469538 0.18292521 0.16401005 -0.14889978 -0.15356642 -0.27969727
-0.10371854 -0.2753626 0.57290196 0.276768 -0.4713196 0.1410643 0.104657196 -0.082315624
-0.45952493 -0.19163252 0.14920758 0.13151802 0.120863296 0.15929012 -0.15202826 -0.31128952
0.3160582 0.376347 0.23919852 -0.16545212 -0.04039586 0.13086519 0.26831672 0.021449072
-0.969652 -1.0651945 -0.39699987 -0.07156669 0.67358756 -0.04391398 -0.026034964 -0.17029738
-0.024046026 0.055052087 -0.13601974 -0.052104175 0.29944196 -0.05528106 -0.2521577 0.26765987
-0.03849948 0.039864697 0.10468652 -0.08613827 0.0714792 0.40583712 -0.3264527 -0.119758435
00000000: 59a9 b6be d733 843d 4b2a 76be 0a60 f13d
00000010: 62ef 053f ffa8 983e d8a0 193d d913 4e3e
00000020: 6638 f3bd f5e5 8e3e 6df3 8ebd 6acf 913c
00000030: 9473 a13b d57f 4f3e 5423 263e c135 3dbe
00000040: 05d2 b13e 8bc9 f2bd e3fe 60be 5704 913d
00000050: 0f95 e1bd bf61 efbd ace2 20be dbcf babe
00000060: 1dd0 41bc 936e ec3e cb09 a03e d024 013f
00000070: 7fc5 4abe ab0d a6be da33 67be a440 303e
00000080: 88ef 98bd db4f c4be 05c9 bfbe 17e7 953d
00000090: b5a4 d83d 48aa 963e 28c9 c3bc 2dd1 e73e
000000a0: 4510 a03d 7155 e03c 771c 803e ad60 0fbe
000000b0: 63a0 043d 809d d13d b7d1 84bc db55 adbd
000000c0: cad0 833e 7e67 20be eabf 83be c1be 01be
000000d0: 5535 0f3f cdde c23d 02fa 893d ec0e 58bd
000000e0: 1b92 a83b b1f8 343e add3 b8bd 11c3 613e
000000f0: abf0 dabe 2efd aa3e 9fe9 b33e 8220 a13d
00000100: ccd2 c33e 27c6 9e3c 6399 06be 9afa f5bc
00000110: 6879 9c3d 3aa8 7d3e 4414 8bbe c1d3 38be
00000120: b9d8 7dbe 5738 163e f842 d2bc 4ca1 cfbd
00000130: 742e 253f 4cdd e53c fbb1 9eba cd9c 60bc
00000140: a1bd 08bc 3341 af3e 35a0 02be 81d2 9e3e
00000150: f29e dfbe 2090 3d3d 0ed0 ae3d 698a 84be
00000160: d497 93be 1307 af3e 12f1 dbbe 7c27 cebe
00000170: 4a7e 823c e311 5dbd 8359 2f3e 44cf 143e
00000180: 7311 dd3d c07a e43e d10e 503d 8b77 b33a
00000190: 2b02 843e 58bd 90be 9bae 99be 9301 86bd
000001a0: 7cb5 a7bd e37c 1abe e02c 1f3d 07c5 b13e
000001b0: f285 9abb b17d a2be 2280 83bb 7ca3 30be
000001c0: 3232 013e 2d24 c9be 9992 fabd e9c0 77be
000001d0: 7cd1 23be 45b4 2fbd 240e 093e bf69 943e
000001e0: 3ab7 ac3e 4446 4d3e 4b1c 5f3d 49a5 943e
000001f0: 17e6 633e 3bfe 923e 82bb 403e f328 933d
00000200: e5c8 a5be 2621 f93d 223f 8e3e d9d6 54be
00000210: 53f6 8bbc 7e0d 42bd b884 d3bd db84 31bc
00000220: ba73 853d 718f 0f3e 70ca 983e 676b 8abd
00000230: a963 1e3e c394 b03e cb82 6d3e 9c41 eb3d
00000240: d2e3 a83d 87c9 8a3e 4652 b03c 31dd f2bd
00000250: 7219 2a3d ab24 593c ae0c db3e 3861 e4be
00000260: 53cf c6be afca 323e c19c 4d3d 51c8 303e
00000270: abaf ba3e 59fe d13c a508 8839 2be0 e3bd
00000280: 5293 903d 3600 b539 85dd c43c 7770 943e
00000290: b274 a5bd fd28 bcbd afde 8b3e f2eb 03bf
000002a0: 90ab fd3e 9236 9ebe 6222 6b3e 55e2 5d3e
000002b0: 3c12 8f3e c111 eebc 92ba 913e 3b63 f3bc
000002c0: e044 1cbe b601 8dbd a550 983e 6db9 233d
000002d0: f736 483e e824 e3bd eb5a 46be e889 773d
000002e0: 6cab 0fbf 6b8a ebbe f462 a5bd 5518 20bf
000002f0: 20cb c93c a643 083e 45f3 073e ab87 81bd
00000300: cbbe 643e 892d 88be 3852 49bd 5eeb 553e
00000310: 66d0 d93e d952 b0bb 283f 583b 6287 0ebe
00000320: 9cb3 3fbe 98ec 453e 1daf e3be bf50 3b3e
00000330: 40f2 273e 2f79 18be 8440 1dbe 7b34 8fbe
00000340: 636a d4bd 54fc 8cbe b4a9 123f 89b4 8d3e
00000350: cd50 f1be 2973 103e 8356 d63d 1895 a8bd
00000360: da46 ebbe 513b 44be dfc9 183e a9ac 063e
00000370: 2d87 f73d f31c 233e 4cad 1bbe 5761 9fbe
00000380: 61d2 a13e 8eb0 c03e 75f0 743e 486c 29be
00000390: 2176 25bd 8601 063e cf60 893e f7b5 af3c
000003a0: 1d3b 78bf 4b58 88bf 9143 cbbe 8f91 92bd
000003b0: 3c70 2c3f 25df 33bd 4747 d5bc 7062 2ebe
000003c0: 2cfc c4bc 4c7e 613d c248 0bbe 306b 55bd
000003d0: 7550 993e 656e 62bd d01a 81be b70a 893e
000003e0: a1b1 1dbd 2a49 233d e365 d63d 4369 b0bd
000003f0: b063 923d e2c9 cf3e cf24 a7be e943 f5bd

actor.init_internal_node_embed.2.add_bias._bias f4 [64, 1]
0.18897371 0.0836095 -0.016327642 0.16047889 0.06992087 -0.1264186 0.056127638 -0.24057694
-0.11908234 0.20266612 0.07097487 0.025592163 -0.03106637 -0.085193194 -0.33779687 0.11366043
-0.16845478 -0.071843356 -0.24212761 0.030858263 0.02226339 -0.07706969 0.2981796 0.2452087
-0.24928488 0.12289847 -0.07668341 0.10204176 0.19814691 -0.07255015 0.09805568 0.073341794
-0.050108712 0.034999188 0.26504165 -0.0658058 0.08096581 0.063164845 0.48876914 -0.08035343
0.20759717 0.017719744 -0.11484327 0.1490742 0.09458148 -0.0407055 0.1844813 0.26806033
0.053296205 0.022032965 0.13757455 0.3546694 -0.024297599 -0.24700318 -0.3251851 0.21094555
0.047727294 0.21322566 0.09656849 0.035776187 0.09674956 -0.042065267 0.2178661 0.07356811
00000000: 5382 413e 753b ab3d 8cc1 85bc 9454 243e
00000010: ac32 8f3d e173 01be 18e6 653d cd59 76be
00000020: 71e1 f3bd b587 4f3e 465b 913d a8a6 d13c
00000030: e67e febc c579 aebd b6f3 acbe cdc6 e83d
00000040: 697f 2cbe 9c22 93bd 4df0 77be 78ca fc3c
00000050: b661 b63c b7d6 9dbd ffaa 983e fd17 7b3e
00000060: 8944 7fbe 31b2 fb3d 310c 9dbd 45fb d03d
00000070: 06e7 4a3e 2c95 94bd 6bd1 c83d 3934 963d
00000080: cb3e 4dbd 4f5b 0f3d 8ab3 873e 31c5 86bd
00000090: 67d1 a53d 925c 813d f33f fa3e 5790 a4bd
000000a0: 5a94 543e ff28 913c f332 ebbd e8a6 183e
000000b0: efb3 c13d cfba 26bd aae8 3c3e 343f 893e
000000c0: 1f4d 5a3d 7a7e b43c 58e0 0c3e 3a97 b53e
000000d0: c20b c7bc 67ee 7cbe a97e a6be 1c02 583e
000000e0: b27d 433d d457 5a3e b3c5 c53d 0d8a 123d
000000f0: a224 c63d a14c 2cbd 4a18 5f3e e1aa 963d

actor.init_leaf_node_embed.0.module.weight f4 [32, 8]
-0.23870777 -0.3772873 0.17312866 0.25374502 0.10730477 0.3861706 -0.33312863 -0.31008336
-0.42311922 -0.11625118 0.36530864 -0.020844022 0.20247729 -0.23344898 0.24468073 -0.052738737
-0.023303697 0.086856574 -0.30148402 -0.07381479 -0.20339113 -0.13356602 0.07910423 -0.09638541
-0.30222198 0.11121155 0.1858519 -0.12501334 0.27345023 0.07327605 -0.2509466 0.012306417
-0.06027987 -0.5622955 0.2718811 -0.022620417 -0.085256346 0.03238924 -0.16618928 0.14231528
-0.41109985 -0.055303305 -0.27728656 0.23053497 -0.12107109 0.12340128 -0.16772553 0.01076374
-0.24290186 0.1269851 -0.03379569 0.093913175 -0.086170584 -0.085445404 0.045337312 0.1632407
0.18077418 0.08468168 0.366644 -0.059961464 -0.051467862 -0.087203816 -0.6596643 -0.08210846
-0.1069906 0.099138215 0.16730979 0.14450294 0.1659991 0.2240116 0.052535653 0.043545164
-0.44020477 -0.16766188 0.06398466 0.02434786 0.35713804 -0.18550205 -0.0016431181 -0.5170856
-0.34673148 0.17532262 -0.44694284 -0.17075145 0.38899043 0.28683034 -0.22961943 -0.00048707204
0.062231686 -0.012943787 0.29130375 -0.2922028 -0.05829377 -0.3878036 0.41844878 0.013218918
-0.32377645 -0.16617404 0.22230403 0.50195104 0.25433618 0.10646261 0.3395942 0.43400663
0.12455985 0.3626618 0.47279194 -0.057112023 -0.52106094 0.011294948 -0.049391028 -0.22407882
0.51497245 0.45083082 -0.025181005 0.36317855 0.029571343 0.12661529 0.13507128 0.15418276
0.030299243 -0.09025866 -0.028089903 0.2238354 -0.15514277 0.2627692 0.04243808 0.17351787
0.2258144 0.24059911 0.008297983 -0.45262668 0.08462026 -0.35199806 -0.22219072 0.1698863
-0.28524536 0.29418904 -0.35854557 0.43948287 -0.16910546 -0.08724834 -0.21087825 0.22162965
0.05094742 -0.025278648 -0.60840285 -0.15815005 0.27100566 0.428221 0.0932948 -0.15949143
-0.23425514 -0.019685442 -0.40935817 -0.11695237 -0.16162 -0.37889597 0.24926195 -0.077825144
0.15568297 -0.019052325 0.13575493 0.42404473 0.4873513 -0.034323223 0.29384202 -0.07648597
-0.28739592 0.40234643 0.12583032 -0.16781238 0.3771944 -0.28668544 -0.041790783 0.19675644
0.14506593 -0.37166384 -0.24247132 -0.36438853 0.37891904 0.0162813 0.4413839 0.2295992
-0.027861834 0.5140847 0.17678516 -0.52870923 -0.09268675 0.6064392 0.14049405 0.39500478
-0.18516105 -0.33110335 -0.21135116 -0.18753317 0.13992733 -0.3176285 -0.07560228 0.587155
0.08139906 -0.21055199 -0.25304046 0.2449615 -0.31561413 -0.0118905185 -0.0049491664 0.3635697
-0.21468776 0.12853473 0.19728254 -0.19979034 -0.51512897 -0.14042571 0.40633944 -0.19147755
-0.11669851 0.29435205 0.12780966 0.1464233 -0.09713996 0.5139656 0.3053924 -0.19126923
-0.012086867 -0.0481676 0.25355253 -0.16919988 -0.16408204 -0.5931802 -0.24044943 -0.09027259
0.2975592 0.25100505 -0.29739752 0.20688462 0.5125415 -0.09316299 0.16093998 -0.49865252
0.064763986 -0.31094489 -0.11560714 -0.37582698 -0.330609 0.40559733 0.07972642 -0.25044602
-0.54635274 -0.022128614 -0.3562042 -0.2007398 -0.3772084 -0.13696639 0.27722487 -0.20802191
00000000: cf6f 74be cd2b c1be a448 313e deea 813e
00000010: 9ac2 db3d 27b8 c53e d68f aabe 3fc3 9ebe
00000020: 15a3 d8be 1915 eebd bc09 bb3e 15c1 aabc
00000030: 3556 4f3e 400d 6fbe 968d 7a3e 9304 58bd
00000040: 65e7 bebc dce1 b13d 1d5c 9abe 352c 97bd
00000050: c445 50be 88c5 08be 6601 a23d b765 c5bd
00000060: d7bc 9abe e2c2 e33d f64f 3e3e 7f03 00be
00000070: ab01 8c3e c111 963d 137c 80be dba0 493c
00000080: 06e8 76bd 99f2 0fbf 0034 8b3e 744e b9bc
00000090: e19a aebd 94aa 043d 862d 2abe 19bb 113e
000000a0: ae7b d2be b885 62bd 81f8 8dbe 5c11 6c3e
000000b0: 1ff4 f7bd cfb9 fc3d 3ec0 2bbe 665a 303c
000000c0: 44bb 78be 6208 023e 596d 0abd 8d55 c03d
000000d0: 347a b0bd 00fe aebd 9eb3 393d 9228 273e
000000e0: de1c 393e 976d ad3d c3b8 bb3e 279a 75bd
000000f0: f7cf 52bd ea97 b2bd c2df 28bf 7b28 a8bd
00000100: e31d dbbd fa08 cb3d 4253 2b3e 94f8 133e
00000110: abfb 293e 4c63 653e a02f 573d 6a5c 323d
00000120: 8562 e1be 8eaf 2bbe 640a 833d 2a75 c73c
00000130: ccda b63e 40f4 3dbe e55d d7ba b95f 04bf
00000140: ca86 b1be c687 333e b1d5 e4be 78d9 2ebe
00000150: c129 c73e 6ddb 923e 5b21 6bbe b45d ffb9
00000160: a7e6 7e3d 2d12 54bc c425 953e 9b9b 95be
00000170: 73c5 6ebd 328e c6be eb3e d63e 2994 583c
00000180: 07c6 a5be 8729 2abe aba3 633e dd7f 003f
00000190: 5a38 823e 1209 da3d 4adf ad3e 1e36 de3e
000001a0: 3c19 ff3d cfae b93e c911 f23e 4cee 69bd
000001b0: 4064 05bf 720e 393c 3f4e 4abd eb74 65be
000001c0: 3cd5 033f 4cd3 e63e 6548 cebc 8af2 b93e
000001d0: 9a3f f23c 70a7 013e 2050 0a3e 16e2 1d3e
000001e0: 1e36 f83c 88d9 b8bd cc1c e6bc 1b35 653e
000001f0: bfdd 1ebe af89 863e 8dd3 2d3d abae 313e
00000200: e43b 673e 9d5f 763e 43f4 073c afbe e7be
00000210: 634d ad3d 1739 b4be f785 63be adf6 2d3e
00000220: ae0b 92be f29f 963e 4993 b7be e603 e13e
00000230: fb29 2dbe 42af b2bd 78f0 57be e2f2 623e
00000240: 3eae 503d 2b15 cfbc 4ac0 1bbf 16f2 21be
00000250: 41c1 8a3e c83f db3e 5811 bf3d b951 23be
00000260: 94e0 6fbe 5d43 a1bc 6597 d1be b984 efbd
00000270: b77f 25be a7fe c1be 863e 7f3e ca62 9fbd
00000280: 5b6b 1f3e 9f13 9cbc 5703 0b3e 641c d93e
00000290: 1c86 f93e 8296 0cbd 7672 963e ada4 9cbd
000002a0: 8f25 93be 5a00 ce3e aad9 003e 02d7 2bbe
000002b0: a01f c13e 6fc8 92be d02c 2bbd 857a 493e
000002c0: 2a8c 143e b94a bebe 674a 78be 2291 babe
000002d0: ad01 c23e 5c60 853c 12fd e13e 0d1c 6b3e
000002e0: 803e e4bc 0e9b 033f 2b07 353e 7d59 07bf
000002f0: 8dd2 bdbd 993f 1b3f acdd 0f3e 113e ca3e
00000300: dc9a 3dbe 6186 a9be 706c 58be b208 40be
00000310: 1c49 0f3e 34a0 a2be 5ed5 9abd ca4f 163f
00000320: 8db4 a63d f19a 57be 858e 81be 30d7 7a3e
00000330: 2d98 a1be 73d0 42bc 9e2c a2bb cf25 ba3e
00000340: 1cd7 5bbe 9c9e 033e 6f04 4a3e d795 4cbe
00000350: 7edf 03bf c2cb 0fbe b90b d03e b112 44be
00000360: a1ff eebd 50b5 963e 89e0 023e fdef 153e
00000370: 51f1 c6bd 4093 033f 655c 9c3e 15dc 43be
00000380: ff07 46bc 644b 45bd a3d1 813e bc42 2dbe
00000390: 1f05 28be a8da 17bf 6038 76be d6e0 b8bd
000003a0: ae59 983e bc83 803e 7d44 98be 90d9 533e
000003b0: eb35 033f 3dcc bebd 73cd 243e 624f ffbe
000003c0: fba2 843d 2b34 9fbe 70c3 ecbd 656c c0be
000003d0: 9545 a9be 74aa cf3e 9b47 a33d 763a 80be
000003e0: c6dd 0bbf 1147 b5bc 6660 b6be bc8e 4dbe
000003f0: 7621 c1be eb40 0cbe 6bf0 8d3e b203 55be

actor.init_leaf_node_embed.0.add_bias._bias f4 [32, 1]
0.030728763 -0.0039590285 0.009777282 0.032116827 0.013974637 -0.05826202 0.04357962 0.002956353
-0.032218114 0.0185612 -0.0057048816 -0.15452243 0.12280029 0.0798191 0.11132724 -0.038090967
0.028132465 -0.028646097 -0.07025482 -0.106389575 -0.03637733 -0.004208814 0.012538706 -0.049261387
-0.14899845 0.0062742215 -0.11861752 0.102267034 -0.16543205 0.063159436 0.0057347547 -0.029822163
00000000: e3ba fb3c bdba 81bb e530 203c ef8c 033d
00000010: e0f5 643c 28a4 6ebd 8b80 323d 5fbf 413b
00000020: 24f7 03bd a80d 983c 04f0 babb 213b 1ebe
00000030: b87e fb3d 3278 a33d 89ff e33d 4605 1cbd
00000040: 0e76 e63c 38ab eabc c2e1 8fbd c7e2 d9bd
00000050: 6500 15bd 17ea 89bb 256f 4d3c 4fc6 49bd
00000060: 0d93 18be fc97 cd3b beed f2bd 6171 d13d
00000070: 0567 29be bc59 813d 9cea bb3b 9c4d f4bc

actor.init_leaf_node_embed.2.module.weight f4 [64, 32]
-0.033104416 -0.38687676 -0.27868757 -0.2040917 0.035935618 0.20718856 0.091008335 0.24289785
0.23437455 -0.097201206 0.06896988 -0.2662103 -0.11424354 0.24867994 -0.5163532 -0.1373512
0.14880489 0.10683819 -0.10560687 -0.119481765 0.019030327 -0.22297254 0.18392412 0.08879791
0.08743321 -0.4554373 -0.10970401 -0.083612084 0.14801367 -0.0680416 -0.08382814 -0.041452292
-0.09134127 0.25583157 0.038664587 0.27387998 -0.16919455 -0.017455062 0.087027006 0.003068828
-0.04376171 -0.2789694 0.40353128 -0.032259997 -0.024750058 0.23631227 0.12631808 -0.39318347
-0.28376117 0.26842582 0.10255182 -0.20507948 0.024105538 0.04948988 0.16990437 -0.4117408
-0.37519217 -0.11752118 -0.03804868 0.13916914 -0.24683136 -0.21398138 -0.00050503324 0.34819245
-0.0010008744 -0.015154174 -0.1325953 -0.035215713 -0.0032416764 0.020004887 -0.094940744 0.43097806
-0.50479287 -0.2041734 -0.5778225 -0.1647264 -0.54993737 0.6647905 0.312818 -0.16175921
-0.00486363 0.447709 0.119858705 -0.11381453 -0.005782778 0.07209368 0.12064563 0.1130104
-0.028591804 0.274949 -0.0857185 -0.32521912 -0.20101573 -0.038589362 0.07592409 0.15486747
-0.025573362 0.2125791 0.18477616 0.14046112 0.37747997 0.048145663 -0.036946114 -0.29735196
-0.0016912641 0.045606084 0.055341 0.22390987 0.0017004033 -0.33454233 -0.12586522 0.32647923
-0.07292737 0.40856645 -0.41942388 -0.012794064 0.24018204 0.16192013 -0.19976018 0.10180004
0.040827606 0.04527925 0.17285757 0.34301588 0.2949454 0.11363494 0.13956377 0.17052172
-0.10953209 -0.070841566 0.063113004 -0.07563009 0.26039055 -0.5475228 0.24501747 -0.004742202
0.057089385 0.07464772 -0.019820035 -0.35164428 -0.15842237 0.47358805 0.07740718 -0.12220221
-0.41984257 -0.28324762 0.42094848 0.11791528 -0.49117163 -0.16292235 -0.22372508 0.23718047
-0.119920395 -0.18832299 -0.17037657 0.36513567 0.23602492 -0.19760127 -0.04376023 -0.20470303
0.2737481 -0.10492671 -0.19350521 0.085212454 -0.19133686 -0.26674733 0.37506792 -0.40342548
0.24592754 0.21471442 -0.11433852 0.3129667 0.49923486 -0.32455856 0.48450354 -0.28407624
0.14905784 -0.23391229 -0.06709419 -0.20362581 0.025525432 -0.18789569 -0.037653774 0.29868433
0.089102484 -0.11094554 -0.092850775 0.044112973 -0.15334046 -0.017685477 0.31819052 -0.14579044
0.14071077 -0.18627408 -0.06458465 -0.026927793 -0.15180297 -0.20436196 0.11715671 -0.024007196
0.15246776 -0.15441038 0.0024413555 0.19531919 -0.18074045 0.38592362 -0.104013264 -0.11173047
-0.46817 0.36489356 0.0023059985 0.08731186 -0.2568105 -0.07937113 -0.166285 0.13081294
0.006934616 0.061451145 -0.01749909 0.16336273 -0.13698609 0.22324477 -0.09847023 -0.05318524
-0.094975464 0.00024967705 -0.11172267 -0.3348615 0.2964296 -0.069711715 -0.2262116 -0.61849135
0.09047372 -0.17703223 0.32130095 0.011411566 0.10648408 -0.12417862 -0.005940468 0.19688725
-0.15481056 -0.47224563 -0.6163497 -0.17205003 0.05837268 0.29570788 0.017431859 0.11140038
-0.03773709 0.16659456 0.20852983 0.27374312 -0.48311833 0.22628462 0.3867393 -0.21342593
00000000: 7f98 07bd b614 c6be 23b0 8ebe 6afd 50be
00000010: 3a31 133d 3d29 543e 9462 ba3d 37ba 783e
00000020: e2ff 6f3e 6d11 c7bd 1540 8d3d b74c 88be
00000030: 84f8 e9bd f4a5 7e3e b92f 04bf cba5 0cbe
00000040: 4f60 183e fbcd da3d 6a48 d8bd dbb2 f4bd
00000050: 7de5 9b3c ea52 64be 9b56 3c3e aedb b53d
00000060: 2f10 b33d 142f e9be 7fac e0bd d03c abbd
00000070: e590 173e 6559 8bbd 16ae abbd e1c9 29bd
00000080: 2211 bbbd 5bfc 823e c25e 1e3d ff39 8c3e
00000090: 5641 2dbe ebfd 8ebc 373b b23d 641e 493b
000000a0: 7b3f 33bd 14d5 8ebe a79b ce3e 0f23 04bd
000000b0: a2c0 cabc d8fb 713e 8759 013e 584f c9be
000000c0: 2549 91be 1c6f 893e b006 d23d 5b00 52be
000000d0: fa78 c53c e7b5 4a3d 69fb 2d3e b1cf d2be
000000e0: 3019 c0be f2ae f0bd efd8 1bbd 5b82 0e3e
000000f0: 5cc1 7cbe ef1d 5bbe 3564 04ba 4846 b23e
00000100: c62f 83ba 3649 78bc 10c7 07be 5a3e 10bd
00000110: 4e72 54bb 4ae1 a33c 4b70 c2bd 28a9 dc3e
00000120: 1b3a 01bf d512 51be 2dec 13bf 0aae 28be
00000130: b2c8 0cbf b62f 2a3f ae29 a03e 35a4 25be
00000140: 165f 9fbb 1d3a e53e 7b78 f53d 9817 e9bd
00000150: 757d bdbb daa5 933d 0e15 f73d ff71 e73d
00000160: 5c39 eabc 1ec6 8c3e 2e8d afbd 1f83 a6be
00000170: 11d7 4dbe e10f 1ebd 177e 9b3d 9495 1e3e
00000180: 3a7f d1bc 56ae 593e f635 3d3e 0ad5 0f3e
00000190: 0e45 c13e 6334 453d cf54 17bd 843e 98be
000001a0: 68ad ddba 72cd 3a3d 3fad 623d a148 653e
000001b0: 11e0 de3a 2249 abbe d0e2 00be 4928 a73e
000001c0: f25a 95bd 9f2f d13e babe d6be 329e 51bc
000001d0: 48f2 753e 64ce 253e ef8d 4cbe 8a7c d03d
000001e0: d93a 273d bc76 393d 9301 313e c79f af3e
000001f0: 1503 973e 6fb9 e83d cee9 0e3e 3f9d 2e3e
00000200: 5c52 e0bd 6215 91bd 6441 813d f3e3 9abd
00000210: e951 853e 742a 0cbf dce5 7a3e 7964 9bbb
00000220: 8fd6 693d e7e0 983d a05d a2bc b80a b4be
00000230: 7939 22be 227a f23e a887 9e3d 2745 fabd
00000240: 9bf5 d6be d505 91be 8f86 d73e 917d f13d
00000250: d97a fbbe 1ed5 26be 3018 65be 70df 723e
00000260: d398 f5bd bed7 40be 3277 2ebe 10f3 ba3e
00000270: 84b0 713e fd57 4abe ed3d 33bd ac9d 51be
00000280: b628 8c3e d1e3 d6bd 3b26 46be de83 ae3d
00000290: cfed 43be 1b93 88be e708 c03e c98d cebe
000002a0: 6ed4 7b3e 19de 5b3e 502a eabd 2c3d a03e
000002b0: b69b ff3e 8a2c a6be d910 f83e 7172 91be
000002c0: 9ea2 183e b486 6fbe ae68 89bd 4983 50be
000002d0: b61a d13c ba67 40be d83a 1abd 27ed 983e
000002e0: 5d7b b63d 6a37 e3bd 8c28 bebd ceaf 343d
000002f0: 4805 1dbe 22e1 90bc dee9 a23e 174a 15be
00000300: 7c16 103e a2be 3ebe f544 84bd ad97 dcbc
00000310: 3d72 1bbe 4344 51be dbef ef3d bdaa c4bc
00000320: 8220 1c3e c11d 1ebe 26ff 1f3b c101 483e
00000330: 0614 39be c897 c53e e804 d5bd f2d2 e4bd
00000340: fab3 efbe 54d3 ba3e 3c20 173b 8fd0 b23d
00000350: aa7c 83be 558d a2bd 9d46 2abe d4f3 053e
00000360: c63b e33b 32b4 7b3d 405a 8fbc 8f48 273e
00000370: 1546 0cbe 479a 643e c3aa c9bd c4d8 59bd
00000380: 7f82 c2bd 16e7 8239 dbce e4bd f772 abbe
00000390: 9fc5 973e 04c5 8ebd 03a4 67be 7355 1ebf
000003a0: 494a b93d f047 35be 8f81 a43e 94f7 3a3c
000003b0: 5314 da3d 5c51 febd 42a8 c2bb d09c 493e
000003c0: a986 1ebe 2eca f1be 18c9 1dbf e22d 30be
000003d0: 3118 6f3d 0667 973e 42cd 8e3c e225 e43d
000003e0: 3592 1abd c497 2a3e d888 553e 0f28 8c3e
000003f0: 495b f7be 28b7 673e b202 c63e 548c 5abe

actor.init_leaf_node_embed.2.add_bias._bias f4 [64, 1]
-0.2852331 -0.0012180796 -0.061800253 0.15638757 -0.05627476 0.3567734 -0.069493406 0.13493471
-0.16918014 -0.11884788 -0.09018301 0.11139073 0.078699276 -0.028920306 -0.38833708 -0.103790954
-0.06593208 -0.07717843 -0.05821824 0.07224314 -0.045448698 0.09574079 0.06833772 0.26187196
-0.18217291 0.3074488 -0.08583948 -0.048706196 -0.058211353 -0.23526876 0.19550505 0.05255198
0.21037067 -0.2684636 -0.3084426 0.17429277 -0.03762559 -0.007323272 0.08851704 -0.060397655
-0.21046095 0.024494633 0.2509559 0.17786576 -0.070070185 0.09748888 0.044900283 0.079540625
-0.09821589 -0.041211188 0.04986701 0.28182587 -0.09025568 0.0533583 -0.1590017 -0.26548177
-0.18262193 0.08876827 -0.19899803 0.041290756 0.041685306 0.05333238 -0.04409545 -0.20535816
00000000: 130a 92be f8a7 9fba 4322 7dbd 1024 203e
00000010: 5d80 66bd 01ab b63e 8f52 8ebd 532c 0a3e
00000020: 8f3d 2dbe 8466 f3bd dfb1 b8bd d320 e43d
00000030: 162d a13d 47ea ecbc 1ed4 c6be 5a90 d4bd
00000040: 6607 87bd ba0f 9ebd 4076 6ebd 36f4 933d
00000050: 6a28 3abd bf13 c43d a6f4 8b3d 1514 863e
00000060: 898b 3abe ee69 9d3e 9ccc afbd 2680 47bd
00000070: 076f 6ebd 4bea 70be 7a32 483e bf40 573d
00000080: 696b 573e 1074 89be 30ec 9dbe ce79 323e
00000090: 4a1d 1abd 0ff8 efbb 6c48 b53d 8863 77bd
000000a0: 1383 57be f8a8 c83c 4b7d 803e 7122 363e
000000b0: f580 8fbd 40a8 c73d 5ce9 373d 32e6 a23d
000000c0: 6a25 c9bd 10cd 28bd 5a41 4c3d 7b4b 903e
000000d0: f8d7 b8bd 3c8e 5a3d 57d1 22be 3aed 87be
000000e0: 3e01 3bbe 24cc b53d 24c6 4bbe 7f20 293d
000000f0: 36be 2a3d 0e73 5a3d 6e9d 34bd 6949 52be

actor.init_next_embed.0.module.weight f4 [32, 6]
-0.22760876 0.16632393 -0.08350397 0.052064933 0.0572139 -0.10546005 1.210945 0.3247803
0.008345833 -0.13711941 0.0275665 0.041402396 0.40337598 -0.39020184 0.24000815 -0.7382487
-0.24226774 0.7641695 1.7973953 0.5689708 0.11215101 0.03942002 0.040685114 -0.038255617
-0.36177218 -0.060073663 -0.19316244 -0.113668054 -0.015396727 0.09682194 -0.06108749 0.11519897
0.45863524 0.11926263 0.0011034643 0.13958195 -0.41258457 -0.22702844 -0.02351719 -0.41560435
-0.014225223 0.26558864 -0.21588811 -0.36569485 0.2535297 0.058839377 -0.1903827 -0.022892026
-0.18824355 -0.25507063 0.3433237 -0.1471528 0.013873347 -0.0550459 -0.37522605 -0.15734398
-0.1450801 0.42841592 -0.21725307 -0.13229318 0.3929877 -0.04757379 -0.14930771 0.28744987
0.024013584 0.017434461 2.061644 -0.18976979 -0.291293 -0.42668968 0.09953174 0.5484963
0.8895123 -0.6588021 -0.04362375 -0.28060353 -0.038103256 0.16702414 0.13499644 -0.2599807
0.30952892 0.29486808 -0.18339056 -0.24248134 -0.056035146 0.053219363 -0.10582405 -0.3979042
0.028280722 -0.10275788 0.014702029 0.06874418 0.23305018 -0.3027738 -0.021579338 -0.22380422
-0.16871455 -0.14450301 -0.12781705 -0.7190784 -0.075197615 0.07627811 0.07443208 0.4543361
0.49786273 0.4190128 0.38869104 0.1549423 -0.17857891 -0.014539119 -0.34739035 -0.07423195
-0.13093343 -0.43348828 1.1664757 -0.22410655 0.1941824 0.28602403 0.1313837 -0.06760926
0.20177843 0.3647977 0.16035423 -0.5428919 -0.06980138 0.4133742 0.33700156 -0.17730126
0.08304779 -0.102799036 0.06815872 0.4266139 -0.22073378 0.027656864 -0.091149665 0.04253043
-0.39200732 -0.011811921 -0.06015922 -0.18967167 -0.13105133 -0.12006788 -0.033694293 0.047660805
-0.234247 -0.07323272 0.3375078 -0.35384384 0.5226759 -0.3719036 -0.3423653 -0.051775616
0.035502844 0.115057066 -0.37354487 -0.089261524 0.3801665 -0.17052647 0.4276855 0.0044850456
0.022657901 -0.1423293 0.3041958 -0.097972795 0.13798693 -0.32110086 0.05576676 -0.16365041
-0.029874904 0.1054592 -0.5193122 -0.83955836 -0.1207786 -0.012929379 0.11258043 -0.04259821
0.3300896 -0.22781631 -0.11796982 -0.10607289 0.12204319 -0.022393305 -0.0009892292 -0.114753224
-0.43537387 0.09941592 0.067538254 -0.110009655 -0.15602608 -0.095893934 0.015656943 -0.14709435
00000000: 4512 69be d250 2a3e 2104 abbd 0a42 553d
00000010: 1f59 6a3d 70fb d7bd 3f00 9b3f 9a49 a63e
00000020: f6bc 083c 0869 0cbe 24d3 e13c 8f95 293d
00000030: 4c87 ce3e 89c8 c7be b2c4 753e defd 3cbf
00000040: 0915 78be 9da0 433f 0d11 e63f 12a8 113f
00000050: 6eaf e53d e376 213d 6fa5 263d ecb1 1cbd
00000060: 343a b9be cd0f 76bd 60cc 45be ccca e8bd
00000070: 8e42 7cbc 954a c63d e036 7abd 70ed eb3d
00000080: 3dd2 ea3e f73f f43d 1ea2 903a 92ee 0e3e
00000090: 493e d3be 257a 68be 1fa7 c0bc 18ca d4be
000000a0: e910 69bc 3cfb 873e c611 5dbe 5b3c bbbe
000000b0: a5ce 813e 8f01 713d aff3 42be 0f88 bbbc
000000c0: ebc2 40be 9e98 82be 20c8 af3e 39af 16be
000000d0: 094d 633c cf77 61bd a11d c0be c81e 21be
000000e0: e18f 14be 5559 db3e 9777 5ebe dd77 07be
000000f0: af35 c93e bcdc 42bd 1fe4 18be a12c 933e
00000100: 23b8 c43c b7d2 8e3c faf1 0340 0353 42be
00000110: 5b24 95be 1277 dabe 4cd7 cb3d 416a 0c3f
00000120: 14b7 633f 41a7 28bf d1ae 32bd 44ab 8fbe
00000130: 2912 1cbd 6008 2b3e 823c 0a3e 311c 85be
00000140: 937a 9e3e f3f8 963e bcca 3bbe 074d 78be
00000150: 1c85 65bd 8cfc 593d 48ba d8bd 19ba cbbe
00000160: f9ac e73c b972 d2bd c7e0 703c c0c9 8c3d
00000170: b5a4 6e3e 2b05 9bbe 27c7 b0bc ef2c 65be
00000180: 82c3 2cbe 99f8 13be 79e2 02be 8615 38bf
00000190: 3501 9abd b337 9c3d d96f 983d be9e e83e
000001a0: dde7 fe3e d988 d63e 8302 c73e 32a9 1e3e
000001b0: 64dd 36be 7c35 6ebc 26dd b1be ec06 98bd
000001c0: 6a13 06be 2df2 ddbe 134f 953f 307c 65be
000001d0: c0d7 463e be71 923e 7389 063e b976 8abd
000001e0: 019f 4e3e c4c6 ba3e e633 243e f7fa 0abf
000001f0: 07f4 8ebd c8a5 d33e 788b ac3e 768e 35be
00000200: f614 aa3d 4d88 d2bd cd96 8b3d 236d da3e
00000210: 0908 62be a690 e23c adac babd 6334 2e3d
00000220: 2fb5 c8be ca86 41bc 8469 76bd 4a39 42be
00000230: 5232 06be 26e6 f5bd 0703 0abd fa37 433d
00000240: 72de 6fbe 09fb 95bd d3cd ac3e 052b b5be
00000250: 16ce 053f 266a bebe 814a afbe ab12 54bd
00000260: 6e6b 113d 0aa3 eb3d 4641 bfbe bfce b6bd
00000270: 2fa5 c23e 7e9e 2ebe 98f9 da3e 4af7 923b
00000280: 109d b93c c6be 11be 8dbf 9b3e f6a5 c8bd
00000290: 724c 0d3e 5567 a4be b06b 643d f993 27be
000002a0: 37bc f4bc fefa d73d a5f1 04bf 4ced 56bf
000002b0: c55a f7bd bfd5 53bc 9290 e63d 767b 2ebd
000002c0: 8101 a93e ae48 69be 299a f1bd be3c d9bd
000002d0: c8f1 f93d 2a72 b7bc 06a9 81ba bd03 ebbd
000002e0: 53e9 debe 939a cb3d 7f51 8a3d be4c e1bd
000002f0: 4dc5 1fbe 0a64 c4bd fd42 803c e79f 16be

actor.init_next_embed.0.add_bias._bias f4 [32, 1]
0.07793469 0.2933888 0.27932942 0.46572223 0.19630519 0.22471556 -0.14137824 -0.17824687
-0.07206973 -0.116620086 -0.24069928 0.9665693 0.034193553 -0.091707066 -0.018913625 0.025100006
0.052683145 -0.10037226 0.026214782 0.20711933 -0.018249111 0.069944225 0.040828846 -0.045012392
-0.045167778 0.09869822 -0.060540613 -0.014551519 0.043957673 0.027036862 -0.10713111 -0.017184874
00000000: 399c 9f3d 0f37 963e 4404 8f3e 2573 ee3e
00000010: 3a04 493e d61b 663e 75c5 10be 5986 36be
00000020: 4b99 93bd 83d6 eebd df79 76be 1671 773f
00000030: 8a0e 0c3d ead0 bbbd bff0 9abc 879e cd3c
00000040: 48ca 573d f98f cdbd 62c0 d63c 1717 543e
00000050: 297f 95bc eb3e 8f3d 263c 273d ea5e 38bd
00000060: d901 39bd 4b22 ca3d 6ff9 77bd 7f69 6ebc
00000070: f60c 343d 697c dd3c 8e67 dbbd 4bc7 8cbc

actor.init_next_embed.2.module.weight f4 [64, 32]
-0.23648952 -0.12332724 0.1217077 -0.27698934 0.214932 -0.17454265 0.0022585068 0.27684283
0.14819172 0.043099362 0.09707671 -0.3981298 0.09345273 0.024313863 0.09169167 -0.020348933
0.10159827 0.16196972 -0.022565534 -0.017106786 0.034302875 -0.46358183 0.25113383 0.5613338
0.08045561 0.1058528 -0.07127939 -0.15137516 -0.22191721 -0.09142238 -0.05891449 -0.103809066
-0.055269122 -0.15632989 -0.14236449 -0.16230705 0.086090885 0.15833922 -0.1980604 0.113152504
-0.063647054 0.09057702 -0.15381643 -0.4498372 -0.28105268 -0.03194514 0.32522747 0.28987974
-0.09017605 0.10483375 0.15289499 -0.50654024 -0.21489985 -0.23712677 -0.22638565 -0.050482836
-0.0469463 0.053632636 -0.074272834 -0.15836655 -0.16671611 0.072054066 -0.034404818 -0.12967916
-0.03770206 0.29622674 0.18436483 -0.0341435 0.0173535 0.0627187 -0.005800616 -0.23367596
0.13037205 -0.11285353 -0.0946369 0.30151072 0.21037388 -0.31290278 -0.14079164 0.006218254
0.24533348 0.033115227 0.038948175 -0.24716455 0.04751365 0.5137332 0.16417001 -0.06597206
0.16179343 -0.34650242 -0.12250963 0.15641661 0.08472573 -0.08863811 -0.27037993 0.17919433
0.015174231 0.37091982 0.034220036 0.5683552 0.23925741 -0.026481224 -0.08635383 -0.0328109
0.02263749 0.36287248 0.09818797 0.74060106 0.16708407 0.17763886 0.0073415493 0.08900806
0.18951818 -0.44219676 -0.09950691 0.18072736 0.20194206 -0.3731006 -0.12047987 -0.3182586
-0.054852 0.12655726 -0.2363191 0.15874338 0.43229413 0.042567246 0.18460941 0.03482873
0.14465308 -0.11818688 -0.02871613 -0.14677036 0.23758519 0.061213486 0.03458734 0.16332832
0.19698185 -0.07455615 -0.11848725 -0.013899138 0.11416475 -0.28212348 -0.2869992 -0.32833904
0.033555277 0.075600766 0.041068736 -0.30578193 0.3104397 0.16518217 -0.01743619 -0.004068104
0.16942193 0.21291691 0.024424972 -0.09618558 -0.016321095 0.050747536 0.033132754 -0.117121495
-0.029685574 -0.112010255 -0.3329356 -0.17696862 0.2476935 0.23877972 0.06477793 0.14525427
0.09296301 0.12735637 -0.29630658 -0.10322799 -0.014011497 0.025734013 -0.1490888 0.12227731
-0.08316307 0.6524625 0.15939133 -0.024170881 -0.26608554 0.47744876 0.06353461 -0.054151498
-0.21756001 -0.21391141 -0.10099584 -0.18123223 -0.41232622 -0.19231336 -0.12972164 -0.170041
0.12329504 -0.45316237 0.20133546 -0.30836394 0.1390021 -0.013721363 -0.18070294 -0.008284822
0.42302302 0.05063808 -0.052658115 -0.023803476 -0.06218029 0.103582814 -0.1580381 -0.2756286
0.013208902 0.49602488 -0.34774205 -0.32993773 0.015701858 0.046858326 0.067427926 -0.05031876
-0.05943138 -0.13952884 0.011138169 0.031326443 0.18413514 0.19128822 0.08144965 0.14766383
0.32715002 0.120037146 -0.20362887 0.026442895 0.001490844 -0.27797845 -0.3260663 0.14296977
-0.014604774 0.09758421 0.07439703 -0.057614103 -0.047231067 -0.017599586 0.38559964 -0.15331578
-0.121458694 -0.15952924 0.062178507 0.22169475 -0.58994055 -0.12668529 0.17243505 0.048178785
0.22128117 0.15164174 -0.2303514 -0.10997607 0.25054166 -0.16468358 0.40501797 0.050816685
00000000: 4f2a 72be fe92 fcbd e341 f93d 8cd1 8dbe
00000010: 2217 5c3e 4fbb 32be 7503 143b 58be 8d3e
00000020: 92bf 173e f588 303d 27d0 c63d abd7 cbbe
00000030: 2564 bf3d de2d c73c d8c8 bb3d ceb2 a6bc
00000040: c112 d03d 64db 253e 5bdb b8bc 8823 8cbc
00000050: 2c81 0c3d 995a edbe 9d94 803e 92b3 0f3f
00000060: e9c5 a43d 5ac9 d83d eefa 91bd 1702 1bbe
00000070: 443e 63be a83b bbbd 5250 71bd d999 d4bd
00000080: e061 62bd f114 20be ffc7 11be d233 26be
00000090: 6b50 b03d ad23 223e 58d0 4abe 80bc e73d
000000a0: 6359 82bd 7280 b93d 0e82 1dbe 1051 e6be
000000b0: 23e6 8fbe e8d8 02bd 3784 a63e 1e6b 943e
000000c0: 39ae b8bd 14b3 d63d 8190 1c3e 9fac 01bf
000000d0: b50e 5cbe 5cd1 72be a4d1 67be 17c7 4ebd
000000e0: c34a 40bd e5ad 5b3d 5b1c 98bd d72a 22be
000000f0: a1b7 2abe 1591 933d 11ec 0cbd 9dca 04be
00000100: 7a6d 1abd 08ab 973e 22ca 3c3e 0eda 0bbd
00000110: ed28 8e3c a972 803d 1813 bebb c048 6fbe
00000120: 4080 053e c01f e7bd fed0 c1bd 9d5f 9a3e
00000130: 406c 573e cb34 a0be af2b 10be 7fc2 cb3b
00000140: b338 7b3e d5a3 073d 1f88 1f3d b418 7dbe
00000150: ac9d 423d 0584 033f 2f1c 283e 5c1c 87bd
00000160: 2dad 253e c468 b1be 54e6 fabd ad2b 203e
00000170: af84 ad3d e687 b5bd 3d6f 8abe b87e 373e
00000180: 569d 783c 34e9 bd3e 4f2a 0c3d ba7f 113f
00000190: e5ff 743e 27ef d8bc 47da b0bd b964 06bd
000001a0: 4272 b93c 6cca b93e c616 c93d 0898 3d3f
000001b0: 1618 2b3e f6e6 353e 6191 f03b dc49 b63d
000001c0: 0e11 423e 9d67 e2be 47ca cbbd 9810 393e
000001d0: e6c9 4e3e 0b07 bfbe 26be f6bd cbf2 a2be
000001e0: 7eac 60bd 3a98 013e a2fd 71be a08d 223e
000001f0: a855 dd3e fe5a 2e3d 400a 3d3e 92a8 0e3d
00000200: f01f 143e f70b f2bd 173e ebbc f84a 16be
00000210: 8849 733e feba 7a3d 74ab 0d3d 8a3f 273e
00000220: 9cb5 493e e5b0 98bd 71a9 f2bd 36b9 63bc
00000230: 35cf e93d 7d72 90be 8ff1 92be 0e1c a8be
00000240: 4271 093d 93d4 9a3d b137 283d 738f 9cbe
00000250: f4f1 9e3e 8425 293e 57d6 8ebc bb4d 85bb
00000260: f17c 2d3e e406 5a3e e116 c83c f2fc c4bd
00000270: d1b3 85bc a6dc 4f3d 36b6 073d 65dd efbd
00000280: 292f f3bc a265 e5bd 8976 aabe 4337 35be
00000290: 5da3 7d3e ac82 743e 4baa 843d 89bd 143e
000002a0: 6463 be3d b569 023e 7fb5 97be 3269 d3bd
000002b0: 7a90 65bc 23d0 d23c bcaa 18be 876c fa3d
000002c0: 6651 aabd c807 273f 7b37 233e 0302 c6bc
000002d0: 5d3c 88be 2a74 f43e 6f1e 823d f6cd 5dbd
000002e0: 0dc8 5ebe 980b 5bbe e8d6 cebd f194 39be
000002f0: 6c1c d3be cbed 44be c0d5 04be 3a1f 2ebe
00000300: 1c82 fc3d e604 e8be e22a 4e3e e1e1 9dbe
00000310: 9156 0e3e 91cf 60bc 310a 39be 10bd 07bc
00000320: 7996 d83e e069 4f3d 09b0 57bd 82ff c2bc
00000330: c3b0 7ebd 3a23 d43d bdd4 21be 311f 8dbe
00000340: 276a 583c f9f6 fd3e 3f0b b2be 99ed a8be
00000350: 2fa1 803c 84ee 3f3d a717 8a3d 0b1b 4ebd
00000360: 526e 73bd a6e0 0ebe de7c 363c 2850 003d
00000370: ec8d 3c3e 0fe1 433e 13cf a63d 3035 173e
00000380: 3580 a73e 09d6 f53d 1684 50be c59e d83c
00000390: 6c68 c33a 3153 8ebe 29f2 a6be ab66 123e
000003a0: dd48 6fbc 3bda c73d 785d 983d c4fc 6bbd
000003b0: 5d75 41bd 022d 90bc 516d c53e d0fe 1cbe
000003c0: 56bf f8bd a25b 23be e4ae 7e3d f303 633e
000003d0: 5806 17bf cab9 01be d092 303e 1e57 453d
000003e0: 8897 623e f947 1b3e 3de1 6bbe 223b e1bd
000003f0: ff46 803e d0a2 28be 845e cf3e 2825 503d

actor.init_next_embed.2.add_bias._bias f4 [64, 1]
-0.7622941 -0.28415135 0.6789302 0.46140772 -0.05556929 -0.1735559 0.1880582 -0.11969097
-0.9950522 -0.9765336 -0.03719548 -0.20666449 -0.15992402 -0.17132154 0.5795459 -0.8084943
0.36320326 -0.122772954 -0.2700577 0.25302985 0.15584637 0.47583458 -0.45351064 1.9014144
0.71618885 0.3717722 -0.18750674 -0.5554848 0.75690526 -0.066947944 -0.22448735 -0.5299923
0.98454267 -0.6521187 -0.8174318 -0.9671425 0.010329259 0.47408906 -0.65448856 -0.13308443
-0.5321046 -0.16605085 0.52915055 0.4192337 -0.17968732 -0.27088127 -0.51115507 0.16889656
0.02246777 0.24458969 0.4909506 -0.27033967 0.1313902 0.879716 -0.9057972 0.6176287
-0.026684923 -0.6666102 -0.51762736 0.32513922 -0.7342491 0.45671305 -0.4029746 -0.708495
00000000: b525 43bf 497c 91be 5fce 2d3f a23d ec3e
00000010: a09c 63bd a3b8 31be 5492 403e 8a20 f5bd
00000020: bebb 7ebf 1bfe 79bf 4a5a 18bd db9f 53be
00000030: 1fc3 23be ea6e 2fbe 1f5d 143f 7cf9 4ebf
00000040: c7f5 b93e 6370 fbbd 0145 8abe 218d 813e
00000050: 3196 1f3e 97a0 f33e 8c32 e8be 8c61 f33f
00000060: 2758 373f ed58 be3e c401 40be 4034 0ebf
00000070: 8bc4 413f 011c 89bd 03e0 65be 93ad 07bf
00000080: fd0a 7c3f 40f1 26bf 3643 51bf a796 77bf
00000090: 0d3c 293c cdbb f23e 908c 27bf 4947 08be
000000a0: 0238 08bf 3c09 2abe 6976 073f cda5 d63e
000000b0: f4ff 37be f3b0 8abe 0fdb 02bf 38f3 2c3e
000000c0: 540e b83c b875 7a3e e15d fb3e f669 8abe
000000d0: 278b 063e 1135 613f 53e2 67bf ea1c 1e3f
000000e0: 579a dabc f7a6 2abf 3a83 04bf a678 a63e
000000f0: c0f7 3bbf 4bd6 e93e b052 cebe ee5f 35bf

actor.embedder.layers.0.0.module.W_query.weight f4 [64, 64]
-0.03181468 -0.0063652466 -0.14033924 -0.07804653 -0.13123898 0.08270543 -0.097531006 -0.10079763
0.032333773 0.025487918 -0.0072420724 -0.06649572 0.034752455 0.13579513 -0.042467296 -0.05878549
-0.1179888 0.045473333 0.06050769 0.07283159 -0.106622875 -0.053469185 -0.15041834 -0.12375646
0.09248872 0.029604852 0.072702356 -0.04031811 -0.06084278 -0.051805984 -0.018913256 -0.032712214
0.15514302 0.03694017 -0.09385259 0.027449152 -0.008192152 -0.030716207 0.16422245 0.052931163
0.05771513 -0.038999103 -0.16811128 -0.16993304 0.01398828 0.035645373 0.033444535 0.11415119
0.014312562 -0.04944915 -0.19355227 0.040777996 -0.06452077 -0.008703052 -0.036533985 -0.15500273
-0.0985129 0.072371766 -0.1030239 0.06713684 -0.15834817 -0.058260728 -0.0287332 0.32065895
0.11577595 0.087339 -0.103826426 -0.071866594 -0.04686741 0.18752658 0.08183728 0.10577025
0.097326584 -0.14718784 -0.108334735 0.08098085 0.02621562 -0.12426934 -0.0077543277 -0.044669516
0.059622094 0.10336959 -0.08476954 0.0876841 0.08379571 0.11186044 0.17530124 0.011817839
-0.054968987 -0.012223038 0.07362699 -0.074305 0.12453256 -0.070616074 0.22145058 0.1102768
-0.024958765 -0.022868728 0.06628847 0.00968096 -0.11508566 -0.024157481 -0.107724 0.050648384
0.08269874 -0.036835074 0.060163353 0.029682714 0.0035377285 0.048265915 0.022879194 0.024368385
-0.06200888 0.14890988 0.086497225 0.066604 0.011930585 -0.092148274 -0.16750735 0.06086872
0.037735585 0.12646781 0.11409559 -0.018190326 0.08939444 -0.04132818 -0.052129515 0.05373846
-0.14027524 0.15102245 0.06390155 0.019256542 -0.025184738 0.16842194 -0.09793135 0.07587108
0.013259216 -0.018947173 -0.028879682 0.20028904 -0.0034626154 0.052755766 -0.18418244 -0.24019639
0.026694221 0.00973063 -0.13761318 -0.0052424124 0.0671209 0.1196723 0.012724883 0.02932347
-0.0621626 0.32912332 -0.08869371 -0.06993662 0.0881367 -0.027848227 0.14490707 0.0472399
0.13634144 -0.11211952 0.045707546 0.13969062 -0.10421824 0.11540412 -0.044213314 -0.13756406
-0.101348825 0.09282204 0.12636966 -0.032993853 -0.12724814 -0.08491772 0.07553571 -0.087480314
-0.0009437502 0.0004393843 0.03178777 0.15867367 -0.092724696 0.05463644 -0.1354142 -0.1750554
-0.003993784 0.030331586 -0.09648091 0.14012828 0.31771946 -0.09475098 0.119002745 -0.011681749
0.2243204 0.0807783 -0.0379873 -0.08611765 0.0015838284 -0.047924757 -0.09585763 -0.1541691
0.011006047 -0.16674341 -0.103199296 -0.13363656 -0.113884434 0.097336724 0.25609908 -0.02610832
0.03364865 0.110767305 0.035969116 0.026196558 0.12905587 -0.06692942 -0.05049939 0.07853691
0.072019316 -0.18323633 -0.047518153 -0.0365685 0.17128597 0.09115173 -0.103167936 0.055713445
0.1414861 -0.043154527 0.012496366 -0.009191808 0.096442685 0.09264934 0.052771166 -0.052776057
0.14061134 0.027208054 -0.09645789 -0.025123151 -0.044599306 -0.04534293 0.0040245163 -0.0021136214
0.043869145 0.054984212 -0.09122299 -0.009814683 -0.075416 0.11523645 0.057555098 0.05899556
0.01804914 -0.031402025 0.02759042 -0.14648618 -0.23315452 -0.014977784 -0.0022060815 0.1649806
00000000: 1c50 02bd 8f93 d0bb 17b5 0fbe dcd6 9fbd
00000010: 8363 06be 7761 a93d 56be c7bd fd6e cebd
00000020: 6b70 043d 0acc d03c e84e edbb e82e 88bd
00000030: 9758 0e3d e10d 0b3e 30f2 2dbd 0ec9 70bd
00000040: 1da4 f1bd 3f42 3a3d e9d6 773d bb28 953d
00000050: 185d dabd 8102 5bbd 4407 1abe 0774 fdbd
00000060: ba6a bd3d e085 f23c f9e4 943d 9a24 25bd
00000070: 4736 79bd 8332 54bd f9ef 9abc 3efd 05bd
00000080: d0dd 1e3e 934e 173d c935 c0bd 0bdd e03c
00000090: 6038 06bc 8ea0 fbbc ee29 283e 59ce 583d
000000a0: b366 6c3d 86bd 1fbd 5d25 2cbe ed02 2ebe
000000b0: 192f 653c e200 123d 23fd 083d 19c8 e93d
000000c0: 3c7f 6a3c 318b 4abd 9132 46be d406 273d
000000d0: 7723 84bd 3f97 0ebc a9a4 15bd 09b9 1ebe
000000e0: 22c1 c9bd a637 943d 32fe d2bd 0a7f 893d
000000f0: 0626 22be cda2 6ebd e361 ebbc 692d a43e
00000100: f11b ed3d cade b23d f3a2 d4bd cb2e 93bd
00000110: 0bf8 3fbd f806 403e 4e9a a73d 139e d83d
00000120: 2953 c73d 69b8 16be 9ade ddbd 4ad9 a53d
00000130: 24c2 d63c ec80 febd 0418 febb 62f7 36bd
00000140: 4c36 743d 70b3 d33d a79b adbd b993 b33d
00000150: 169d ab3d 1617 e53d 2b82 333e 9c9f 413c
00000160: 2927 61bd 2343 48bc bfc9 963d 382d 98bd
00000170: ed0a ff3d 299f 90bd f1c3 623e ced8 e13d
00000180: 5376 ccbc 3357 bbbc 40c2 873d e49c 1e3c
00000190: 08b2 ebbd e9e5 c5bc 679e dcbd ae74 4f3d
000001a0: f55d a93d 60e0 16bd d96d 763d 2a29 f33c
000001b0: 3cd9 673b 7bb2 453d 266d bb3c 35a0 c73c
000001c0: 06fd 7dbd d57b 183e 7525 b13d ae67 883d
000001d0: 8078 433c 3cb8 bcbd 0c87 2bbe 7b51 793d
000001e0: a190 1a3d c780 013e f3aa e93d e103 95bc
000001f0: 6f14 b73d bd47 29bd c285 55bd dc1c 5c3d
00000200: 50a4 0fbe a1a5 1a3e d1de 823d e5bf 9d3c
00000210: 3950 cebc cd76 2c3e 3b90 c8bd 4c62 9b3d
00000220: 2f3d 593c 1a37 9bbc 1595 ecbc 9218 4d3e
00000230: 0ced 62bb 6e16 583d 529a 3cbe 0bf6 75be
00000240: d7ad da3c 386d 1f3c 78ea 0cbe 8bc8 abbb
00000250: af76 893d c016 f53d 077c 503c c637 f03c
00000260: 369e 7ebd da82 a83e 0ca5 b5bd ee3a 8fbd
00000270: 0481 b43d f721 e4bc 8562 143e a07e 413d
00000280: 179d 0b3e eb9e e5bd d637 3b3d 0f0b 0f3e
00000290: 5f70 d5bd ff58 ec3d 0519 35bd 98dd 0cbe
000002a0: f98f cfbd 7b19 be3d 0c67 013e 9024 07bd
000002b0: 564d 02be 57e9 adbd 77b2 9a3d e128 b3bd
000002c0: 0166 77ba 2a5d e639 e533 023d 5a7b 223e
000002d0: 72e6 bdbd 76ca 5f3d 05aa 0abe b941 33be
000002e0: 4ade 82bb f279 f83c c997 c5bd ca7d 0f3e
000002f0: 20ac a23e cd0c c2bd b6b7 f33d ce64 3fbc
00000300: 3fb4 653e 186f a53d 9298 1bbd 735e b0bd
00000310: 7698 cf3a c04c 44bd 0151 c4bd 81de 1dbe
00000320: b552 343c c9be 2abe 275a d3bd 06d8 08be
00000330: 3e3c e9bd 7a58 c73d 6b1f 833e 1ee1 d5bc
00000340: 2bd3 093d f8d9 e23d 5a54 133d 2a9a d63c
00000350: 3927 043e 4b12 89bd 73d8 4ebd f6d7 a03d
00000360: dd7e 933d 4ea2 3bbe 65a2 42bd dac8 15bd
00000370: 9765 2f3e c2ad ba3d b649 d3bd c833 643d
00000380: bbe1 103e cdc2 30bd 8fbd 4c3c 3d99 16bc
00000390: be83 c53d f0be bd3d 9426 583d b52b 58bd
000003a0: 6bfc 0f3e 6de3 de3c b78b c5bd 11cf cdbc
000003b0: c3ad 36bd 82b9 39bd 17e0 833b af84 0abb
000003c0: 22b0 333d 2037 613d 1ed3 babd c4cd 20bc
000003d0: b473 9abd 1701 ec3d e5be 6b3d 54a5 713d
000003e0: cadb 933c 699f 00bd 4e05 e23c 7900 16be
000003f0: 0fc0 6ebe 6165 75bc e893 10bb adf0 283e
