Online-3D-BPP-PCT-main/logs/experiment/test-2022.08.03-17-53-29/PCT-test-2022.08.03-17-53-29_2022.08.03-17-53-30.pt (torch, 235994 bytes, 24 tensors)

actor.init_internal_node_embed.0.module.weight f4 [32, 6]
000000 9f 71 88 be e9 7b 21 3d 7c 78 d0 be b0 5e 7f be
       -0.26649186 0.03942481 -0.40716922 -0.24938464
000010 fd 5f 9f be c1 df af 3d d6 5f 55 bd 54 7e 13 3e
       -0.3112792 0.085875995 -0.05209335 0.14403659
000020 66 c1 d4 be 25 04 4a be 0a 15 63 be a1 e3 bb be
       -0.415538 -0.19728144 -0.22175995 -0.36697105
000030 09 b7 2b be 44 c5 1a 3e 25 f0 8c 3e 77 68 b8 3e
       -0.16769041 0.15114313 0.27526966 0.360172
000040 21 d3 8d 3d 1e 2f 1d bf 54 59 f1 3d 10 23 53 be
       0.06925035 -0.6140002 0.11784616 -0.20618844
000050 09 47 d5 3e f8 a5 d1 be 46 9e 0c be d6 b6 ec 3e
       0.41655758 -0.40946937 -0.13732252 0.46233243
000060 05 59 32 be 9a 4a c9 be 87 24 11 3f 72 b0 18 bd
       -0.17416771 -0.3931473 0.5669636 -0.037277646
000070 cd f4 52 3e 6d a3 f3 3e c4 dc a2 3d 4e 55 35 3e
       0.20601197 0.4758562 0.07952264 0.17708322
000080 8d 84 98 3d ab b2 11 bd d3 40 ca bc 49 7e ab be
       0.07447157 -0.03557078 -0.024689114 -0.33494785
000090 0a 1a 72 3f 5b 06 3f 3e 64 0e f7 be c7 17 a2 bf
       0.9457098 0.18654768 -0.48253167 -1.2663506
0000a0 66 42 d2 3e 77 4b 9c 3e a8 e7 8a bc 00 06 39 bd
       0.41066283 0.30526325 -0.016956165 -0.045171738
0000b0 4b a3 59 3e 3a a5 63 be 78 67 ff 3c d4 44 b1 ba
       0.21253698 -0.22230998 0.031177267 -0.0013524541
0000c0 a6 5f a0 3e b2 f1 ba 3e cf dc 21 3f f3 a4 f2 be
       0.31322974 0.36512524 0.6322755 -0.4739147
0000d0 b2 49 33 3a 81 df 18 3e 86 52 c9 3e ee 17 a8 be
       0.00068392896 0.1492901 0.39320773 -0.32830757
0000e0 02 44 0c 3f f0 f5 b3 bd 56 7f e3 3d 1a 26 88 3d
       0.5479127 -0.08787143 0.11108272 0.06647892
0000f0 92 ff 0a bf 62 3e 62 bc 77 27 32 bf 13 6f 13 3f
       -0.5429622 -0.0138088185 -0.6959147 0.5759136
000100 a0 8b 67 bd 5a f3 b3 3d c1 0e fd be 5f 00 14 3d
       -0.05652964 0.0878665 -0.4942532 0.036133166
000110 7a 1f eb 3b 3e ec a7 3e db 96 40 be 2a ab a7 3e
       0.007175383 0.32797426 -0.18807547 0.32747775
000120 51 2e 3a 3e 2a 02 af be 6b 0f 28 be 27 3c c9 3e
       0.18181731 -0.3418134 -0.16412131 0.39303705
000130 8e c8 a3 be bf fc 9f 3d 68 dd 2c 3d 1e ef ed bd
       -0.3198895 0.07811879 0.042203337 -0.116178736
000140 86 98 fa bd f6 d1 aa be ae cc d6 3e 9b 61 02 bf
       -0.12236123 -0.33363312 0.41953033 -0.50930184
000150 cd 59 4d 3e 40 e4 23 3b 9a c9 0a 3d 89 9c 1f be
       0.20053788 0.0025007874 0.03388367 -0.15587057
000160 96 58 01 bd b9 a6 3a be df 1f 78 3e 05 98 06 3e
       -0.031578623 -0.18227662 0.24230908 0.13143928
000170 df 95 74 be a6 4c 20 3e d6 29 33 bf 48 f3 c2 3e
       -0.23885296 0.15654239 -0.6998571 0.38076234
000180 3c c6 d6 be e4 1a 00 bf ea b3 74 be ef 9b 8d be
       -0.41948116 -0.5004103 -0.23896757 -0.2765803
000190 6e 08 03 bd df 3e ce bd 54 49 b8 bd 59 eb d4 bb
       -0.03199046 -0.100705855 -0.08998361 -0.006497782
0001a0 52 a5 bc 3e 49 70 75 3c d2 c6 31 3c f0 87 bd 3c
       0.3684488 0.014980384 0.010850625 0.02313611
0001b0 a8 5d 06 bd 29 c8 dc be 22 fc c0 be 77 96 57 be
       -0.03280416 -0.4312146 -0.37692362 -0.21053492
0001c0 98 9e 4a be 32 c2 2f be 11 5a c9 3d 2a df ea bd
       -0.19787061 -0.17163923 0.09831632 -0.114683464
0001d0 56 03 80 be aa 36 f4 bd 6c 94 87 bd 67 88 e9 bd
       -0.25002545 -0.11924489 -0.06620106 -0.1140297
0001e0 5f 87 b3 3d 92 53 4f be ec 5f 61 3d d4 79 d0 bd
       0.08766054 -0.20246723 0.05502312 -0.10179487
0001f0 02 3c 14 bf 6f d2 cd 3e 07 d9 cd be 91 e7 27 be
       -0.57904065 0.4019961 -0.4020464 -0.1639693
000200 13 d8 8c be cd 77 6a 3e 05 a6 94 3d 2e 73 ad 3e
       -0.27508602 0.22897263 0.07258228 0.33876938
000210 64 1c 7a be d2 27 5c be b7 1c 28 bf 7d 07 8a 3e
       -0.24424893 -0.21499565 -0.65668815 0.26958838
000220 0c 78 17 3f d7 f2 e3 3d 6d 97 b2 3d 81 21 48 3d
       0.5916755 0.111303024 0.087202884 0.048860077
000230 65 f5 92 be 9e d9 f3 bd 3f cf ee be d7 0c 59 be
       -0.28702846 -0.119067416 -0.4664249 -0.21196304
000240 e2 75 91 3d 6c e8 0c be 88 52 81 3e 8b 11 30 3b
       0.071025625 -0.13760537 0.2525828 0.0026865925
000250 61 3a 19 3e 11 4b b6 3d 1b 66 fb 3e 93 a5 0d be
       0.14963676 0.089010365 0.49101338 -0.13832693
000260 eb f2 2a 3e f6 2a 1a 3b b8 73 a9 3e 52 d2 d9 be
       0.16694228 0.0023524142 0.330961 -0.42543274
000270 1e 57 7d 3e 59 e8 9e 3d f1 1f c2 3e b1 e9 fd 3e
       0.24740264 0.077591605 0.37914994 0.49592355
000280 94 f2 2c be fd 7a d7 be a2 3a cc 3e 06 fa 2b 3e
       -0.16889411 -0.4208602 0.39888483 0.16794595
000290 13 57 ac be 3a 93 a0 3e 50 eb b3 bd 48 a2 49 3d
       -0.33660182 0.31362325 -0.08785117 0.04922703
0002a0 38 df de 3d 34 9e 75 be f7 3f a0 be 30 67 07 3f
       0.10882419 -0.23986131 -0.312988 0.52891827
0002b0 36 eb 07 3f 91 48 23 bf ff c1 26 3f 9c c8 2e be
       0.5309328 -0.637826 0.65139765 -0.17068714
0002c0 7f 02 e5 be 98 2a a3 be ea e6 88 bd 79 b7 b5 3e
       -0.44728467 -0.31868434 -0.06684668 0.3549154
0002d0 f4 60 2b bf 28 21 f0 be 4e 92 8c 3e d2 90 a8 3e
       -0.66944814 -0.46900296 0.27455372 0.3292299
0002e0 06 57 cf bd 9c 72 57 be 29 ad e2 3e 2b f9 24 3e
       -0.1012402 -0.21039814 0.44272736 0.16110675
0002f0 d0 7d 0e be d4 42 c0 bd 09 62 8f bd 93 56 6a be
       -0.13915181 -0.093877465 -0.070011206 -0.22884588

actor.init_internal_node_embed.0.add_bias._bias f4 [32, 1]
000000 ea a5 c6 bd 15 55 97 3d e8 7d 2c bd 83 ca b3 bc
       -0.09699614 0.07389275 -0.04211226 -0.021947151
000010 67 bd ea 3d df 9e 33 3d 46 bc c6 3a c4 2e 51 bc
       0.11461907 0.043852683 0.0015162311 -0.012767497
000020 66 6d 51 3d 85 b2 0e 3e 8a 8f 92 3a ef 5d fd 3c
       0.05112972 0.13935287 0.0011181694 0.03092858
000030 05 11 c8 3b 9b e8 20 bb 79 7e 8a bd a8 55 9d ba
       0.0061055445 -0.0024552706 -0.06762404 -0.0012003677
000040 5b c5 e1 bd d2 60 19 3d 1c ff 54 3d 79 77 31 be
       -0.11023971 0.03744585 0.052001104 -0.17330731
000050 7e 91 f0 3a 76 1f 38 3c 60 d5 60 3d 16 b3 d8 3d
       0.0018353907 0.01123797 0.05489099 0.10581033
000060 04 0f 21 bd 14 f0 62 3c 25 52 5b 3b bd 4e 9a 3d
       -0.03932096 0.013851184 0.003346571 0.075345494
000070 87 03 ac 3b a3 31 a6 bc f7 72 10 3c f7 2b 8a bd
       0.005249444 -0.02028734 0.008816472 -0.06746667

actor.init_internal_node_embed.2.module.weight f4 [64, 32]
000000 74 f8 dd 3d 46 bc 82 3e 27 05 26 3e ee 5b 61 be
       0.10838404 0.25534266 0.16212903 -0.22007725
000010 c3 72 a5 be eb 86 24 3e d7 ae aa 3e 6f 7e d4 3e
       -0.3231412 0.16067092 0.33336517 0.4150271
000020 55 99 aa 3e e9 7f 7e 3e 92 b9 96 3e e9 b0 a9 bd
       0.33320108 0.24853481 0.29438454 -0.08285696
000030 af 88 e9 bd 99 53 0b 3c 6f e6 e4 be 41 a1 1a 3e
       -0.114030235 0.008503818 -0.44707057 0.15100576
000040 63 c6 ef bc 20 fe bb bc cf 20 0e 3d c6 7f 98 3c
       -0.029269403 -0.022948325 0.034699257 0.018615615
000050 ec 6e 31 be a5 89 b5 3d 92 2b 34 3f 06 e9 fb bc
       -0.1732747 0.08864144 0.70378983 -0.030750763
000060 1d 49 27 3e b8 f6 90 3e 3b fc 63 3d 82 8f f2 3e
       0.16336484 0.2831323 0.055660468 0.47375113
000070 81 0b c6 bd 55 94 fb bd 31 38 1c 3d 51 79 00 bd
       -0.09670163 -0.122841515 0.038139526 -0.031365696
000080 23 52 7e 3e 1d 2f 3b bd 67 d8 a9 be ed 23 44 be
       0.2483602 -0.045699228 -0.33172914 -0.1915433
000090 e1 8c 54 3e 5b e7 86 3e 60 0c ab 3e da d4 58 bd
       0.20756866 0.26348385 0.3340788 -0.052937366
0000a0 0e e1 1c 3e 1d 00 73 3e 1b 77 bc 3e 7d 2f 4f be
       0.15320227 0.23730512 0.3680962 -0.20232959
0000b0 43 96 ba 3e f8 d3 6a 3e 59 35 5c 3d e3 6b 99 3e
       0.36442766 0.22932422 0.053761814 0.29965124
0000c0 d4 59 97 bd 87 6e 3c 3e 78 59 32 be 04 bc b2 be
       -0.0739018 0.18401538 -0.17416942 -0.3490907
0000d0 50 63 63 bd e5 9a b4 3c 63 83 eb 3e 9a f3 16 3e
       -0.055514634 0.022046516 0.45998678 0.14741364
0000e0 8f d9 48 3e 4b 2e 34 3d b4 aa c9 3e fb da 83 3e
       0.19614242 0.04398946 0.3938805 0.25753006
0000f0 b0 54 dd 3e 16 01 1f 3e 12 1b 53 be 4f 1d 2d be
       0.43228674 0.15527758 -0.20615795 -0.16905712
000100 31 9d 6b be f6 2b 0c bd 0e 1b 5e 3e 16 cb 03 3f
       -0.23009183 -0.034221612 0.21690008 0.5148176
000110 60 e7 25 bd 9c a2 8e 3d 1b 6e db 3c a3 23 b2 3e
       -0.04050386 0.06964609 0.0267859 0.34792814
000120 47 7f b9 3d 3a b7 de bd c6 90 ec 3d dc b3 93 be
       0.09057479 -0.108747914 0.11551051 -0.2884816
000130 72 2a 2f be 5d 82 f6 3d c4 52 31 3d 5b d1 02 be
       -0.17106035 0.120365836 0.043291822 -0.12775175
000140 d6 a7 17 be 07 12 60 3e 8a b3 04 3d dc 27 27 be
       -0.14810118 0.21881877 0.032397784 -0.16323799
000150 7a e9 cd bd 09 85 dc bd 0e 45 3e be 54 af 59 bd
       -0.10054298 -0.10767562 -0.1858103 -0.05314572
000160 85 14 8d 3e de d8 00 bf f8 ee 10 be d6 f7 a8 be
       0.27554718 -0.50330913 -0.1415366 -0.33001584
000170 7c e2 97 3e 94 22 6d be f8 97 d8 3d 17 81 02 be
       0.2966498 -0.23157722 0.10575861 -0.12744556
000180 41 34 b6 bd c3 c9 9b be fd 46 8a 3d be 49 da 3e
       -0.088966854 -0.3042737 0.06751821 0.42634386
000190 3d f8 45 3e 8d f4 2d be 62 b2 9a 3d 54 31 4d bd
       0.19332977 -0.1698782 0.07553555 -0.05009587
0001a0 96 b6 44 3e 84 40 8d 3e 02 97 0c bc b2 86 d5 3e
       0.19210276 0.27588284 -0.008580925 0.41704327
0001b0 f1 f5 27 be ef 0d a6 3d 8a d2 8c be dc 31 d0 3d
       -0.16402413 0.08108126 -0.2750438 0.1016576
0001c0 3b 75 da 3d 4a 7b f3 be 90 2e 96 3d 9b 80 79 3e
       0.10666891 -0.47555 0.073331 0.24365465
0001d0 bd 98 8a be 0a 2b 16 3f 9d 3d e8 3e 4e 02 a9 3d
       -0.27069655 0.5865942 0.45359507 0.08252393
0001e0 1c ec 97 3e c3 64 ab bd 67 46 c9 3d 6e 49 0e 3f
       0.29672325 -0.08368828 0.09827881 0.55580795
0001f0 1c 21 8c 3e 8c fe ee bb 1b 25 be bd bd ff ad 3e
       0.2736901 -0.007293528 -0.09284421 0.33984175
000200 af 81 94 3e 22 28 a7 bd fb 2e f2 bc 7e 43 af 3d
       0.2900519 -0.081619516 -0.029563418 0.08557795
000210 e4 d6 ac be 43 20 e2 bd ad 2f c0 bd d5 8f bd bd
       -0.337577 -0.1104131 -0.093840934 -0.092559494
000220 fe cb 87 be 4b bc 4b 3e 67 6f 6f bd 13 f0 00 3d
       -0.2652282 0.19896047 -0.05845585 0.031478953
000230 cd d7 7f be 05 8d 68 be e1 9c 68 3e 06 a1 54 be
       -0.24984665 -0.22710045 0.22716095 -0.2076455
000240 10 3b 2b 3c 04 9c 85 3d 24 86 6a bc ac e6 53 be
       0.010451093 0.06523898 -0.014314208 -0.20693463
000250 93 ba 06 be 81 e2 07 3e 77 a5 25 be 0b 3b a7 bd
       -0.1315711 0.13269998 -0.16176401 -0.081655584
000260 05 66 48 3d 8b 98 d9 3e df b9 cf 3e 89 3d d4 3d
       0.04892542 0.42499194 0.40571496 0.103632994
000270 28 9c 7d bd bb ca 79 bd 52 95 49 3e e1 ad 59 bd
       -0.0619165 -0.060984354 0.19685867 -0.05314434
000280 fc 68 21 be f4 66 2a be 79 0f cd 3d 5a b7 97 3c
       -0.15762705 -0.16640836 0.10012717 0.018520046
000290 ad 9b 90 3e a5 30 2a be af ab 92 bc ac 13 6b 3e
       0.2824377 -0.16620119 -0.01790413 0.22956723
0002a0 ce 19 9a 3e 25 39 bd bd 05 fa 14 3f 90 45 8c be
       0.30097812 -0.09239415 0.58194 -0.27396822
0002b0 a7 0d b4 be c3 2d 92 be 5f d4 8d 3d 37 76 c0 3e
       -0.35166666 -0.28550538 0.06925272 0.3759019
0002c0 5d 43 3e 3e 2d ca 57 3e 78 12 f5 3c 57 1c ee bd
       0.18580385 0.21073218 0.029916033 -0.11626499
0002d0 05 a9 1b 3d 68 0e 35 bf 2c dc 0f 3c 6f c8 6d 3c
       0.038002986 -0.7072511 0.00878052 0.014513119
0002e0 aa ff bc 3e 5b cf 7c 3e 77 ff 85 3e 5d b3 f3 3d
       0.36913806 0.24688475 0.26171467 0.11899445
0002f0 87 c7 0b be 6c b4 12 3e ac d6 b5 3e a9 29 92 3e
       -0.13650332 0.14326638 0.35515344 0.2854741
000300 4e 03 9d 3e 2d 9b 85 3c 54 4c 52 3d a2 87 f6 3e
       0.30666584 0.016309345 0.051342323 0.48150355
000310 78 7f 92 3d ea 18 b1 bd d4 e4 de 3c 14 3d a0 3e
       0.07153219 -0.0864733 0.027208723 0.312966
000320 b1 17 ae bd 60 6f 0e 3e fe e4 e5 3d 25 ed 0a 3e
       -0.085006125 0.13909674 0.112253174 0.13567026
000330 3f 8e 4e be d9 39 88 38 29 dd 38 3d 95 74 e1 be
       -0.2017145 6.49576e-05 0.04513279 -0.44034258
000340 95 64 c2 3b c2 d9 66 be 74 e4 25 3c b3 bb 1f 3e
       0.0059324005 -0.22544006 0.010125268 0.15598945
000350 bf 41 74 bd ca e1 09 3d 0d fb 73 bd 7f 46 54 bd
       -0.059633013 0.033662595 -0.059565593 -0.051825043
000360 07 22 6c be e8 cf 44 3e 2f a4 fd bd e5 f9 c5 3e
       -0.23059855 0.19219935 -0.12384831 0.38667217
000370 c5 e7 ec bd d1 32 c0 3c c2 bf 06 be 11 fe 14 be
       -0.11567644 0.023461731 -0.13159087 -0.14550044
000380 ec d4 2c be a4 a3 87 3a 2f 27 c4 bd 99 3d d2 bd
       -0.16878098 0.0010348451 -0.09577786 -0.10265655
000390 59 ba 0e bd 44 ee 64 bd d6 0a 5b 3d 6f 54 8a 3e
       -0.034845684 -0.05589129 0.05347713 0.27017543
0003a0 d8 b3 9b 3e 6e a9 ee bd ac 5c 23 be 3c c1 9b be
       0.30410647 -0.1165341 -0.1595332 -0.30420864
0003b0 65 02 c1 3c 74 24 1d 3e 3a 53 0c be a8 71 a9 bd
       0.023560712 0.15345937 -0.13703623 -0.08273631
0003c0 8b 92 93 bd cd fa 03 bf 70 b4 36 3e 5b 1c 70 bd
       -0.07205685 -0.51554567 0.17842269 -0.058620792
0003d0 5f b5 10 3d c3 30 40 bf a7 24 6b 3e ed 10 ba bd
       0.03532922 -0.75074404 0.229632 -0.090852596
0003e0 38 37 93 be 61 3c 90 3e 91 5a 8f 3d ed 5f 27 3e
       -0.28753066 0.28171065 0.06999696 0.16345187
0003f0 01 80 8d 3e 06 06 21 3e e1 b6 9d 3e 10 41 79 be
       0.27636722 0.15724954 0.30803588 -0.24341226

actor.init_internal_node_embed.2.add_bias._bias f4 [64, 1]
000000 47 a1 1c 3e 18 c5 b9 3e c5 83 51 be 0f ba 90 3e
       0.15295897 0.36283183 -0.20460422 0.2826695
000010 ba 61 10 3e 19 ef 06 3e c5 5f 9b 3d d2 99 f6 3c
       0.1409978 0.13177146 0.07586626 0.030102644
000020 f5 4e 70 3e a3 ce 25 be 32 1c 31 bc e3 cc 64 3d
       0.2346762 -0.16192107 -0.010809945 0.055859458
000030 35 56 5d bd 06 6b 8e 3e bf 43 df 3d 3a cd 41 bd
       -0.05403729 0.27816027 0.109015934 -0.04731486
000040 ec 10 94 3d 2e df 6f 3d 10 4e c3 be 64 97 22 be
       0.0722979 0.05856245 -0.38145494 -0.15878063
000050 17 c4 de 3d 78 36 7c 3d ee 73 43 3e 77 2d 5c bd
       0.10877245 0.061575383 0.19087192 -0.053754296
000060 6a f3 f0 bc 17 85 1d be a2 4f e3 3d 0d a3 32 be
       -0.029412944 -0.15382801 0.11099173 -0.17445011
000070 8d 29 8f 3e 7e b7 fa bd 9e 35 24 be b1 ab c1 3e
       0.27961388 -0.122420296 -0.16036078 0.37826303
000080 f3 41 9c 3b e0 46 1d be e5 37 af bd ec d2 3a 3e
       0.004768604 -0.15359068 -0.08555583 0.18244523
000090 11 db a5 3c e8 57 2b be 0a 14 9c 3e 54 bb e2 bc
       0.02024606 -0.16732752 0.3048404 -0.027677216
0000a0 40 1d d4 3e 6d d8 20 be ac f2 61 be cd a3 fb bd
       0.41428566 -0.1570756 -0.22065228 -0.12287102
0000b0 ef 12 4f 3d 95 58 27 bd 09 8a 4e 3e 13 4b be be
       0.050555166 -0.040855963 0.20169844 -0.37166652
0000c0 ed 5c 88 3e 6f 7e 9f bd 43 c1 c5 3d 86 98 45 be
       0.26633397 -0.07787787 0.09656002 -0.19296464
0000d0 ba ac 2b be 1f d7 ba 3d 50 51 46 be 3d a2 94 3d
       -0.16765109 0.09123062 -0.19366956 0.07257507
0000e0 34 a8 6a 3c c0 31 76 3d 5b d2 2b 3e cf e2 36 be
       0.014322329 0.06010604 0.16779463 -0.17859958
0000f0 65 11 d0 bd 66 20 97 bc 14 ae b6 3d 1c 8f 16 3d
       -0.10159568 -0.018448066 0.089199215 0.036757573

actor.init_leaf_node_embed.0.module.weight f4 [32, 8]
000000 8f 3b ea bb 0e 94 89 be 2d d1 aa be d6 c5 f1 bd
       -0.007148213 -0.2687077 -0.33362713 -0.11805312
000010 a2 fb d4 3d ae 1b a9 3e ae ba fd 3e 63 07 8a 3e
       0.10399558 0.3302893 0.49556488 0.2695876
000020 cc 4b 4a be 41 79 0f bf d7 78 42 bd 37 68 f6 be
       -0.19755477 -0.56044394 -0.047478523 -0.48126385
000030 67 99 b5 be 8a b0 cb 3e c7 d3 b4 bc e6 bd ba 3e
       -0.354686 0.39783126 -0.02207364 0.36473006
000040 a9 ec 6f 3e bf 5c b6 be a8 bc 03 be e6 2e c9 3e
       0.23430122 -0.35617635 -0.12864935 0.39293593
000050 64 64 5a bc 37 de a0 be 02 2d 68 bd 7e 1e 8a bd
       -0.013329599 -0.31419536 -0.056683548 -0.06744097
000060 1f 0c d0 be fd 76 56 be 04 79 84 be 9a 78 97 be
       -0.40634248 -0.20943828 -0.25873578 -0.295842
000070 cc 23 b8 3e 49 3f 87 3d 91 0d e7 3e ae e4 e9 3d
       0.3596481 0.066038676 0.45127538 0.1142057
000080 80 56 f2 3c 55 fa db bd 72 f2 5a 3e 0b 7f b2 3d
       0.029582262 -0.107411064 0.21381548 0.08715638
000090 d9 2a b7 3e 1e fa bd 3d 06 50 ff be a2 52 c8 3e
       0.35774878 0.09276222 -0.4986574 0.39125544
0000a0 72 fb 40 3d 75 be 28 3e 55 7b f0 be 86 65 31 3e
       0.047114797 0.16478904 -0.46969095 0.17323884
0000b0 26 ab 01 bf 2d b2 01 3f e8 ad fa bd 8b 8a 83 be
       -0.50651777 0.506625 -0.12240201 -0.25691637
0000c0 d4 00 ba be e1 38 5f be 7b fb a5 bd 5c a4 63 bd
       -0.36328757 -0.21799041 -0.08104607 -0.055576667
0000d0 ea 2c 16 3d 37 29 cf be 62 68 cc bd 84 15 e0 bd
       0.036663927 -0.40461132 -0.09980847 -0.10941604
0000e0 44 04 c0 3e d7 7c 02 bf 08 1c 4f 3e be 11 eb 3e
       0.37503254 -0.5097174 0.20225537 0.45911974
0000f0 06 31 61 bb 22 61 f2 3e 1e 1e 38 3d 1c c2 66 3e
       -0.0034361496 0.4733973 0.044950597 0.22534984
000100 01 1d c6 3d 68 60 2b 3e 74 65 4b bc 92 f9 96 3e
       0.09673501 0.16735995 -0.012414325 0.29487282
000110 33 a2 c0 3d ae 23 26 3d 68 12 fb 3e 09 2f b2 3e
       0.09405937 0.04056137 0.4903748 0.3480151
000120 eb fd 1e bd a2 15 af 3e fb 67 17 be 84 6a a0 3e
       -0.038816374 0.34196192 -0.14785759 0.31331265
000130 54 ff 1e 3d 56 53 50 be b3 a1 e7 3e cc 05 99 be
       0.03881772 -0.2034429 0.45240554 -0.29887235
000140 0f 2f cd 3c 97 bd ed 3c 3b e8 46 3e 66 88 e0 bd
       0.025046853 0.029021068 0.19424526 -0.10963516
000150 ef 70 c0 3e 93 eb 8a 3d c6 b2 45 be e9 61 ad 3c
       0.37586161 0.067832135 -0.19306478 0.021164851
000160 30 ea a2 be 59 5b 24 3c 39 94 fa 3d 6c 57 ff 3d
       -0.31819296 0.010031545 0.122353025 0.12467846
000170 b8 77 00 3f cd ba 05 3e 92 83 88 bc 1d 41 b7 be
       0.50182676 0.1305954 -0.0166643 -0.35791865
000180 84 79 d0 3e c6 f0 6c bc 7b 1f 11 3f 01 6e c3 be
       0.4071771 -0.014461702 0.5668866 -0.38169864
000190 ed 5b 1d bc c6 c1 77 bd 2f f3 bb 3e 26 c1 ee bd
       -0.009604436 -0.06048753 0.36708972 -0.11657934
0001a0 63 67 38 be be 8d 2d 3e 31 4a 8b 3e 45 b1 03 be
       -0.18008189 0.16948602 0.2720504 -0.12860592
0001b0 0e 78 6f be bd f7 2f be c2 2c b6 3e a7 2a 9c 3d
       -0.23385641 -0.17184348 0.35581023 0.07625323
0001c0 96 b1 b5 3e 9e 47 00 3e 22 3c 29 3e 1f 47 b4 3e
       0.3548705 0.1252732 0.16526845 0.3521051
0001d0 d7 d0 2b bd 25 4c e6 3e 15 43 e9 3d af f0 94 bd
       -0.041947212 0.4497997 0.11389748 -0.07272469
0001e0 f4 17 f3 3e d3 d3 0c 3d fd d5 f4 bd 22 74 04 bf
       0.47479212 0.0343817 -0.119548775 -0.51739705
0001f0 4a de 95 3e 3c 20 c5 3e 66 4a 12 3d d1 02 9c be
       0.29271156 0.38501155 0.035715483 -0.304709
000200 68 e2 5c bd 75 02 b3 3d b9 99 bb be 1f e7 e4 3e
       -0.053926855 0.08740703 -0.3664072 0.4470758
000210 52 07 6a 3e 74 aa a9 bb e1 f7 77 be b6 90 a0 3d
       0.22854355 -0.0051777903 -0.24215652 0.078401014
000220 c8 50 e6 bd a1 b1 c6 3e 42 05 00 3d e2 4e 03 3e
       -0.112458766 0.38807395 0.031255014 0.1282306
000230 d4 d9 8d be ed ca 00 3e 66 e4 3d 3e c9 6e 93 3e
       -0.27705252 0.1257741 0.18544158 0.2879546
000240 bc b4 41 be dc b3 26 3d 94 e6 40 3d 0c a2 ba be
       -0.18916601 0.04069887 0.047094896 -0.36451757
000250 5a fb 87 be 08 bc cf 3e 58 bb 48 3d 23 d3 f4 3d
       -0.26558954 0.40573144 0.04900679 0.11954334
000260 70 d3 c2 be e0 1c ad 3c e7 87 e6 bd 90 c1 8f 3e
       -0.3805194 0.021131933 -0.1125639 0.28077364
000270 62 f3 38 3e 77 83 11 3f ae 72 b7 bd ba 1a d9 3d
       0.18061593 0.56841224 -0.0895742 0.10600801
000280 dc 63 9e be b3 6d 7e be b4 f6 b9 be 05 2e 2b bc
       -0.30935562 -0.24846534 -0.36321032 -0.010447984
000290 33 ea 77 3c bc 8c c8 3e a2 a5 10 be 68 2f 86 be
       0.015131521 0.39169872 -0.14125684 -0.26208043
0002a0 e6 9f 7a 3d 2f b2 d9 bd 83 e4 ed 3d 87 b5 6e be
       0.061187647 -0.10629689 0.11615851 -0.23311435
0002b0 c3 10 0b be ba 5e 8a be 4e a6 47 be a9 99 6d 3d
       -0.13580613 -0.27025396 -0.19497034 0.05800787
0002c0 eb 2b a7 be ce f2 dd 3e fb 96 73 3e 41 11 92 3e
       -0.32650694 0.43349308 0.23788063 0.2852879
0002d0 57 78 30 3e 65 73 b3 3d ca c9 f1 3d 45 63 07 3e
       0.17233406 0.08762244 0.11806066 0.13221462
0002e0 81 3b a8 be 37 99 d6 bd b9 38 7c 3d 73 b2 48 bd
       -0.32857898 -0.10478442 0.061577532 -0.048998307
0002f0 00 f3 c9 3e 5b 48 d6 bc 7f a2 17 bd 2a 7b 7e bd
       0.39443207 -0.026157549 -0.037020203 -0.062129177
000300 01 d9 17 3e cb e4 55 3e 3b 10 de 3e ab 37 af bd
       0.14828874 0.20888059 0.43371758 -0.0855554
000310 ec c5 ac 3d 51 99 d5 bc 4f bb 8c bc d6 e8 fc 3e
       0.08436188 -0.026074084 -0.01717916 0.4939639
000320 bd 53 86 3e 2a f6 38 3e 7a 42 f2 be 30 47 8d be
       0.26235762 0.18062654 -0.47316343 -0.27593374
000330 4d b3 c5 3d aa 28 7f bd 3c cb 3f 3d 11 97 99 be
       0.096533395 -0.06229464 0.04682468 -0.29998067
000340 ab 0a b7 3e 1a ba 40 be 3a 10 a8 3c 3e 26 9c 3e
       0.35750327 -0.18820992 0.02051555 0.30497926
000350 82 cc 0c 3e fc 1c 04 3e 38 f3 e3 3e 1c 7b 8e be
       0.13749889 0.12901682 0.445215 -0.278283
000360 15 ee b6 3d 0c 2f 3c be 22 a4 02 bf e2 14 12 3e
       0.08932129 -0.18377322 -0.51031697 0.14265779
000370 2d 46 20 3f fe 67 02 bd be 31 5e 3e ef 74 ba 3e
       0.6260708 -0.031837456 0.21698663 0.36417338
000380 cb 7f aa 3e a7 26 2b be e3 a6 5f be 50 d7 d2 bd
       0.33300623 -0.16713963 -0.21841006 -0.10294974
000390 02 9a c0 bc 89 1e c7 be c0 58 d1 3d 27 06 50 3e
       -0.023510937 -0.38890484 0.10222006 0.20314847
0003a0 44 13 1d 3e b2 85 a5 3e 80 ae 6b be a1 e5 7a be
       0.1533938 0.32328564 -0.23015785 -0.24501659
0003b0 77 c6 87 3e 6c a4 01 3d 3e 4b 5e be 91 dc 28 3e
       0.26518604 0.031650946 -0.2170839 0.1649039
0003c0 a5 79 87 3e 86 e7 dd 3e ab 1e f0 be c8 e2 8f be
       0.26459995 0.433407 -0.46898398 -0.28102708
0003d0 aa c8 a5 be a1 f1 91 be 7d 0d 10 bd 5e 9f e9 3e
       -0.32379657 -0.2850466 -0.035169113 0.456294
0003e0 3b 93 26 3d bd f7 bd 3e 3e 82 cd bd dd b7 cb bd
       0.040667754 0.37103072 -0.10034607 -0.099471785
0003f0 6d 0d 46 3e 04 ef c1 3e 44 3c 30 3e b9 d1 c6 bd
       0.19341059 0.37877667 0.1721049 -0.0970797

actor.init_leaf_node_embed.0.add_bias._bias f4 [32, 1]
000000 5f 9a 8f bc 06 0d ff 3c 72 38 9e 3b 5e 71 3d 3c
       -0.017529665 0.03113414 0.004828506 0.011562673
000010 d2 94 d0 bd ca 83 e5 3a cf 57 74 be 1e ee ca 3c
       -0.10184635 0.001751059 -0.23861621 0.024771746
000020 27 bb 9c 3d 92 2b a2 3b 00 4e 7b 3d cf 85 7a bc
       0.07652884 0.0049490416 0.061353683 -0.0152906915
000030 ed d5 ac ba d2 b3 fa bb 75 27 dc 3d 16 3f 08 bd
       -0.0013186313 -0.007650831 0.10749713 -0.03326329
000040 ee 25 9d bc 97 4c bb bc e5 d8 be 3c b7 cd 58 3d
       -0.019183125 -0.02286367 0.023296783 0.05293056
000050 e4 3a 50 3b 30 30 47 be e0 23 a4 3d 02 66 c3 bc
       0.0031773383 -0.19451976 0.08014655 -0.023852352
000060 8e 2c 47 bd 1d 5c 47 3c 25 6e 3d 3d fa 3b 14 bb
       -0.048626475 0.012167958 0.04624762 -0.0022618757
000070 0a 69 8c bd dd e4 0d 3c ba 8c 22 be b8 73 f2 bd
       -0.06855972 0.008660522 -0.15873995 -0.11838478

actor.init_leaf_node_embed.2.module.weight f4 [64, 32]
000000 0c dd 6d bd c2 28 9d 3e fc e0 be 3d d6 9c 25 bb
       -0.058072135 0.30695158 0.09320256 -0.0025270483
000010 cc d2 ce be 33 c6 90 3e d2 73 94 3e 34 c3 8b be
       -0.403952 0.28276214 0.28994614 -0.27297366
000020 80 f5 93 be 15 58 8e 3d 17 03 7f 3e 5c 66 31 be
       -0.2889824 0.06950394 0.24903522 -0.17324203
000030 90 a5 82 3d c8 0a 12 be 1f 7f d0 3d f6 db 15 3e
       0.06379235 -0.14261925 0.101804964 0.1463469
000040 3e a6 71 be 96 47 03 3d db 4b 80 3e d5 b9 16 3e
       -0.23598573 0.03205069 0.25057873 0.14719327
000050 c5 bf 5c 3e cc 89 10 be 28 1f f1 3e 3e 12 1d 3d
       0.2155753 -0.14115065 0.47094083 0.038347475
000060 98 11 78 3e 10 6e 86 3c 11 b7 5f be 1a db 0e 3e
       0.24225461 0.016409904 -0.21847178 0.13950768
000070 e4 a2 d6 bd d4 3c ef 3c 26 cb 48 3e 89 0e 64 be
       -0.10480288 0.02920381 0.19608745 -0.2227117
000080 c5 78 86 be 3d 76 5b 3b 29 57 25 bd 7b ea 0e be
       -0.26264015 0.0033487224 -0.040366326 -0.13956635
000090 e5 ff 5b be 81 57 cf 3c 0d fd 78 be 2b 39 9a 3e
       -0.21484335 0.02531028 -0.24315281 0.3012174
0000a0 72 db cb 3e 31 03 9b be 71 e9 1f 3e 86 03 aa bd
       0.3981586 -0.30275872 0.15616395 -0.08301453
0000b0 6b 43 8a be 2f b6 78 3c e4 7f 3a 3c af 81 01 be
       -0.2700456 0.015180155 0.011383031 -0.12647127
0000c0 66 22 e8 3e b6 82 18 3d 43 53 53 bd 54 40 8d be
       0.45338744 0.03723403 -0.051593076 -0.2758814
0000d0 87 4f 38 be e5 dc 86 3e ea b8 31 3e 02 5a 72 3e
       -0.17999087 0.26340404 0.17355695 0.23667148
0000e0 f8 db b1 bd a4 05 0f 3e c3 c0 81 3e c1 41 b5 3e
       -0.08684534 0.13966995 0.25342378 0.3540173
0000f0 15 cf bd 3d d1 e7 d3 ba 92 98 84 3e b7 48 58 be
       0.092680134 -0.0016167109 0.25897652 -0.21121489
000100 cc 87 e0 bd e4 15 dc 3d e5 c0 bd bc a0 d8 8d be
       -0.10963401 0.10746363 -0.023163268 -0.27704334
000110 92 4d 0b 3e 6b 17 73 be 3d 54 0c be 3f 79 00 3e
       0.1360381 -0.23739402 -0.1370401 0.12546252
000120 69 9c e4 bc 79 77 bd 3e f1 37 93 3c 58 cc 06 3e
       -0.027906613 0.37005213 0.01797101 0.13163888
000130 72 ed 89 3d 59 63 23 3d b0 f0 0f 3e 6e 78 b8 3d
       0.06734742 0.039889667 0.14056659 0.09007345
000140 4b 38 9a be 00 2b 30 be db d7 ba 3d d3 cd 5b 3c
       -0.30121073 -0.17203903 0.091232024 0.013415772
000150 92 3f 8c be ad be 6e 3d 6e ba 19 3e fc 93 1b 3e
       -0.2739225 0.05828731 0.15012524 0.1519317
000160 8d 17 e3 3e 5b 9c 25 3d 07 da 0c 3e e0 a0 a2 bd
       0.44353905 0.040432315 0.13755046 -0.07940841
000170 93 dc 33 be ea 19 ca bc c3 8b fb be b9 54 72 be
       -0.17564611 -0.02467056 -0.49130067 -0.23665132
000180 60 fb c5 bc c0 8a 0e be 95 2c ae be a6 5f 8c 3e
       -0.024167717 -0.13920116 -0.34018388 0.27416724
000190 4e 09 a5 be d2 1a 25 3e 57 d8 38 be bf 6a c3 3d
       -0.3223366 0.16123512 -0.18051277 0.095418446
0001a0 7e be 9f bd 63 45 07 3d 3c 2f ae 3d 06 3a 0d 3e
       -0.078000054 0.033025157 0.08505103 0.13791665
0001b0 a5 9c 42 3e 49 70 62 be d2 50 1c be c3 7b c9 3d
       0.19005068 -0.22113146 -0.15265206 0.09838059
0001c0 2f 35 39 be 58 cc 9c 3d 7f a1 b7 3d 79 85 09 3e
       -0.18086694 0.07656163 0.0896635 0.13429822
0001d0 28 1a 0b bb 50 0a 4c be 8f b8 c9 3d f7 0a 33 3e
       -0.0021225307 -0.19925809 0.09849655 0.17484652
0001e0 59 68 02 be 94 79 b8 bd f2 05 5a 3e f4 69 b3 3e
       -0.12735118 -0.09007564 0.2129133 0.35041773
0001f0 52 e2 32 3e 4d a1 5d be c9 46 9d bd 15 9e a2 bd
       0.17469147 -0.21643563 -0.07679517 -0.07940308
000200 d1 2d dd bc db 93 80 be 45 d3 b4 be 34 3a 27 be
       -0.026999386 -0.25112805 -0.35317436 -0.16330796
000210 d0 b2 41 bd 2d 63 ed bd 30 03 3f be a2 6b 88 bc
       -0.04728967 -0.11591182 -0.1865356 -0.016652886
000220 53 4e 22 bf c0 f0 a2 3e 0b 1f 7a 3d ee e4 77 bb
       -0.63400763 0.31824303 0.06106476 -0.0037825662
000230 5d 03 47 3e 8c 11 6e bd e9 c4 70 be 71 a9 16 3e
       0.19434877 -0.058122203 -0.23512615 0.14713074
000240 84 7f 8b 3c ec 2d ca bd f4 0c 8f be 23 c1 72 3e
       0.017028578 -0.0987204 -0.2793957 0.23706488
000250 3a d6 be 3e 3c 3b 9a 3d 39 4b bb 3d b9 61 9a bc
       0.37272817 0.07530829 0.09145207 -0.018845426
000260 c9 9c a8 be 80 76 53 bc a6 10 8d 3d 0c 1b 58 3c
       -0.32932118 -0.012906671 0.06887941 0.013190042
000270 99 28 b6 bd b8 cb 08 be 0e f7 81 bd 91 33 3d be
       -0.08894462 -0.13358963 -0.0634595 -0.18476702
000280 2a b3 aa bc a9 be 3a 3e 8e 98 70 bd 85 32 24 be
       -0.020837385 0.18236794 -0.058739237 -0.16034897
000290 15 74 7d 3e cb a5 11 3d 9d 21 a0 3d 1c bf 16 3d
       0.24751313 0.035558503 0.07818911 0.03680335
0002a0 e7 5f 53 be 2f cc 2e be 93 da c0 bd 47 9f 05 3e
       -0.20642053 -0.17070077 -0.0941669 0.1304904
0002b0 ef eb b5 be c8 f9 72 be 52 7e 9e 3e 26 25 ab be
       -0.35531566 -0.23728096 0.3095575 -0.3342678
0002c0 03 7e 9a 3e c3 d4 21 bd 3c cd 29 3c df 02 20 3d
       0.30174264 -0.039509546 0.010363873 0.039065238
0002d0 33 19 d1 3d fb b6 21 3e b6 b1 d3 bd df 21 77 be
       0.102098845 0.15792458 -0.1033663 -0.24134015
0002e0 0a 29 69 be 0a 3a 22 3e 2f f4 2c 3d 57 eb ae 3e
       -0.22769561 0.15842453 0.04222506 0.34163925
0002f0 15 d7 94 bd 91 14 87 bd dc 25 d9 bd ea 44 f1 bc
       -0.07267586 -0.065957196 -0.10602924 -0.029451806
000300 b6 0b 21 be bb 1f 86 be 1d 41 8c be 12 f6 9a 3d
       -0.15727124 -0.26196083 -0.27393427 0.075664654
000310 21 f5 14 be e4 d0 34 3e 81 91 b4 3b 10 59 39 3c
       -0.14546634 0.1765781 0.0055105095 0.011312738
000320 2f 8d 47 bd a0 2f e9 3c 92 10 15 3e 5d 34 d9 bd
       -0.048718628 0.028465092 0.14557102 -0.10605691
000330 33 50 19 3f 03 1d f2 3d 40 49 5d be 98 9e 80 be
       0.59888 0.1182194 -0.21609974 -0.25120997
000340 cc d0 ae bd 7d 3d 9a 3e 2d de 91 3d e5 f5 55 3d
       -0.085359186 0.30125037 0.07122455 0.052236456
000350 d3 1b be 3d 7b 87 c4 bd 64 82 1e be cb 8a cd bc
       0.09282651 -0.09596153 -0.15479428 -0.025090596
000360 ad b0 8f 3e 0c 97 d2 3e 0b ad 43 be 98 f4 d5 3d
       0.2806448 0.41130865 -0.1910898 0.10447043
000370 94 39 19 3e 47 b2 b7 3d 92 1f 7c be 51 c8 dd 3d
       0.1496337 0.089695506 -0.24621418 0.10829223
000380 7c da f2 3d 8e cc d0 3e 33 0e 6d be cc 1f 8d bb
       0.11858079 0.40781063 -0.23149948 -0.004306769
000390 e1 5f d1 be ab bf 51 be 81 60 2a 3e 47 1e 83 be
       -0.40893462 -0.20483272 0.16638376 -0.25609037
0003a0 08 44 d4 bd 5a 3d 97 bd 76 f1 b2 3c 28 52 c1 be
       -0.103645384 -0.07384749 0.021843653 -0.37757993
0003b0 ea ca 3c 3e 4d 20 8e be 0f b8 5f be d3 4f 1f 3e
       0.1843678 -0.2775902 -0.21847557 0.15557794
0003c0 62 59 b3 be 11 65 3d 3e 16 4f 9d bd a3 ba 6e be
       -0.3502913 0.18495585 -0.076811 -0.23313384
0003d0 e4 f2 e8 bc a2 5d 3f 3e a1 6a f7 3d d9 d9 9c be
       -0.028436132 0.18688062 0.12080885 -0.30634955
0003e0 3f e8 1f 3e cb 17 86 bd 59 9e b5 be d1 fe bf be
       0.15615939 -0.06547507 -0.35472372 -0.37499097
0003f0 16 47 3f 3e 65 33 30 be 55 52 03 3e 4c 3a fb bd
       0.18679461 -0.17207105 0.12824376 -0.122669786

actor.init_leaf_node_embed.2.add_bias._bias f4 [64, 1]
000000 b6 b1 ef bd 97 63 62 3e 6d ec 07 3e de c9 53 3d
       -0.117038175 0.22108303 0.13273783 0.051706187
000010 1a fb 24 3e 73 df ce 3d c8 e4 ba bd ab 51 58 be
       0.16111413 0.10101213 -0.09125668 -0.21124904
000020 2a 71 41 bb ac 36 be bd 68 c6 c0 3d ce a7 b9 bd
       -0.0029516914 -0.092877716 0.09412843 -0.09065209
000030 a7 e1 8f be c7 b3 1d be 44 f2 77 be 12 a8 2f 3d
       -0.28101847 -0.15400611 -0.24213511 0.042884894
000040 e2 8b 55 3c 52 d4 3a 3e 57 c2 43 be ca c5 8f bd
       0.013033839 0.18245056 -0.19117104 -0.07020147
000050 84 b0 d4 be 99 e0 53 3e dc f4 fd bd a2 eb bf bd
       -0.4154092 0.20691146 -0.12400219 -0.09371115
000060 c9 4a 23 3e 5e 4e 79 3c bf 39 f7 bd 68 22 43 be
       0.15946497 0.015216438 -0.12071561 -0.19056094
000070 9b 49 5a bc a3 73 50 3e 92 eb 71 bc 84 67 7e bd
       -0.013323213 0.20356612 -0.014765637 -0.06211044
000080 d0 d8 03 bd 8e 6c 92 3d bd e6 a7 3d ab 8b 87 3e
       -0.03218919 0.071496114 0.08198307 0.26473746
000090 e4 03 82 bc 02 53 17 3d 31 0b 41 3e ae cd 08 be
       -0.015870996 0.036944397 0.18851925 -0.1335971
0000a0 e0 3f c0 3c b3 82 f8 bd ae 1e d0 3d 70 e0 fe bc
       0.023467958 -0.12134304 0.10162102 -0.03111288
0000b0 44 d3 70 be e1 49 f8 bd 37 02 0c be 5d de df bb
       -0.23518091 -0.12123466 -0.1367272 -0.0068319277
0000c0 3a 3b 17 bc ed 9d 05 3e 6a 1a 82 3d 89 5c 71 3c
       -0.009230429 0.13048525 0.06352694 0.014731535
0000d0 ba b6 36 3e 66 b1 55 bd b6 bc b4 bc 4e d5 9b 3e
       0.17843142 -0.052171133 -0.02206264 0.30436176
0000e0 2c a3 bb 3d 3d df 3c be 1b c9 03 3e ef 88 19 be
       0.09161982 -0.18444534 0.12869684 -0.14993642
0000f0 43 ad 6a 3e c0 9d d3 bd 72 6f 32 3e aa 7d 92 bd
       0.22917657 -0.10332823 0.17425326 -0.07152875

actor.init_next_embed.0.module.weight f4 [32, 6]
000000 16 2b ce 3c b2 61 17 be d0 09 99 be c0 75 04 bf
       0.02516703 -0.14783362 -0.298903 -0.5174217
000010 c1 bc 1d 3d 02 f9 43 be 22 f5 8f bc 51 ff c7 bd
       0.038510088 -0.19137958 -0.017572943 -0.097654946
000020 04 51 3f 3e be 99 44 be 0e 59 99 bd 05 17 69 be
       0.18683249 -0.19199273 -0.07487689 -0.22762688
000030 d6 86 91 bd 0d 16 89 be 77 fc 83 be 57 90 d5 3e
       -0.07105796 -0.26774636 -0.25778553 0.41711685
000040 d9 14 1a be 80 40 34 bc d1 74 0b 3e fd fb 14 3d
       -0.15047015 -0.011001706 0.1361878 0.036373127
000050 94 95 07 bd c6 8d f3 3e ce da ed be ed 62 dc be
       -0.033101633 0.47569102 -0.46455997 -0.43044224
000060 95 4d 4e 3c 52 13 d8 be 92 1b fe bd 52 b8 b1 3c
       0.012591739 -0.4220224 -0.12407602 0.021694336
000070 67 c8 9b 3b d3 98 0c bf 73 b0 5c bc cc c5 13 bf
       0.0047541144 -0.5492069 -0.013469803 -0.5772369
000080 bc 29 91 3e b9 16 06 bf 10 4b 23 bc 4e 05 1c 3e
       0.28352153 -0.5237842 -0.009966627 0.15236399
000090 f5 5f b6 3e 8b c7 d2 3d 8f 5a 91 3d 52 fb 85 3e
       0.35620084 0.10291966 0.07097351 0.26168305
0000a0 7c 36 4f 3b 5b 23 97 be 77 c9 74 3f c4 59 c9 3d
       0.0031618169 -0.29519162 0.9561991 0.098315746
0000b0 b5 52 15 3e 8c 1e 45 bc cd 8c 08 bf e4 03 96 3d
       0.14582331 -0.012031209 -0.53339845 0.07324961
0000c0 73 24 7a 3d 79 28 17 bf 35 54 7a 3e 42 0e 13 3f
       0.061069917 -0.5904613 0.24446185 0.5744363
0000d0 6f 94 bb 3e 83 72 35 bf a6 f1 e7 3d 8c a0 95 be
       0.36636683 -0.70877856 0.11325388 -0.2922405
0000e0 02 a6 3a be 8f aa 9a 3d 97 5f a7 be 0d 92 df be
       -0.1822739 0.07552063 -0.32690117 -0.43666115
0000f0 aa 3c e4 3e 36 78 3a 3e 4a 12 84 3c 9c 88 3b be
       0.44577533 0.1820992 0.016122002 -0.18313831
000100 3b 56 34 3e b4 ad fc 3e 02 dc 00 3f a5 7c ef bc
       0.1761102 0.49351275 0.50335705 -0.02923424
000110 10 2e b1 bc bb 48 c7 3c dd e1 78 3d 7f e1 a8 be
       -0.02162841 0.024326673 0.060762275 -0.3298454
000120 95 78 b2 be 90 7e 06 bd 61 50 15 3e 6e cd d6 3c
       -0.34857622 -0.032835543 0.14581443 0.026221003
000130 da 6d 6b be 1a 68 a7 be 9b 3e 92 bd 0b a8 15 3c
       -0.22991124 -0.3269661 -0.07140847 0.009134303
000140 4f 46 fe 3d 37 6c 25 be 42 df 47 be 1f 3a e4 3c
       0.12415754 -0.16154562 -0.1951876 0.027859746
000150 43 91 49 3f 2d 89 69 be d9 14 83 be 55 1b 4f 3e
       0.78737277 -0.22806235 -0.25601843 0.2022527
000160 08 ca 57 3d 48 80 92 3c 19 2a 6b bd 10 3a 82 bd
       0.052682906 0.017883435 -0.057413194 -0.06358731
000170 68 6d 98 be 8e 1f 1e bf f2 22 39 be e8 fc 95 3e
       -0.2977097 -0.617669 -0.18079737 0.29294515
000180 f5 fa 7d be cc 78 0b bd 73 49 e6 bd 9b 17 50 bd
       -0.24802764 -0.034050748 -0.11244478 -0.050803762
000190 da 7d 84 be cb 75 ce 3d 9a 82 0e 3f 30 f0 4e bd
       -0.25877267 0.10081061 0.5566803 -0.05052203
0001a0 51 bc 49 3e e1 d3 03 bf 2c 3d 30 be a9 e0 c6 3d
       0.19700743 -0.51495177 -0.17210835 0.09710819
0001b0 4d fe 0e 3f 3d 85 93 3e 19 18 6a 3e f1 b0 6c be
       0.5585678 0.2881259 0.22860755 -0.23114373
0001c0 34 10 cd 3d 81 b1 27 3f 0b 8e f1 3f 65 fe 79 3e
       0.10012856 0.65505224 1.8871473 0.2441345
0001d0 e8 a9 b7 be 77 30 d9 be 27 5a 27 3d 31 f1 1a 3f
       -0.35871816 -0.42419788 0.04085746 0.6052428
0001e0 32 eb 8a 3e 50 55 d6 3c 58 e4 14 bd f5 82 44 be
       0.27132565 0.026163727 -0.036350578 -0.19190581
0001f0 f5 82 e2 be f9 03 4c 3e f4 8a 2c be e2 10 58 be
       -0.44240537 0.1992339 -0.16849881 -0.2110019
000200 22 e0 37 bf 05 9e 07 bd 25 db 1d 3d e4 e7 9a bd
       -0.71826375 -0.033109684 0.03853907 -0.07563761
000210 67 28 fb 3e a4 45 17 be a0 75 c7 bd ce a4 14 bf
       0.49054262 -0.1477266 -0.09739232 -0.5806397
000220 49 9c a5 be db b5 18 3f 31 53 e5 3e 0e 27 88 be
       -0.323458 0.5965249 0.44790033 -0.26592296
000230 32 62 a9 3e 95 ff 46 bf 1a aa a3 3e 4d 8a fa 3e
       0.3308273 -0.7773374 0.31965715 0.4893364
000240 22 6a 96 3f 5f dc cb bd 22 d6 3a be bd 35 03 bf
       1.1751139 -0.09954142 -0.18245748 -0.51253873
000250 42 9e af 3c 26 dc 0c 3f 90 e6 5f 3e b7 67 92 3e
       0.021437768 0.5502342 0.21865296 0.28594753
000260 a5 c0 83 bd df 0a 09 be 52 e1 29 be 1c b4 d1 be
       -0.064332284 -0.13383053 -0.16589859 -0.40957725
000270 64 c0 96 bd 93 fe a3 be 6a 75 39 3e be 87 04 3e
       -0.07360914 -0.32030162 0.18111196 0.12942407
000280 a4 6c 17 3e 80 32 c1 bd 63 03 00 bf a3 c9 c3 be
       0.14787537 -0.0943346 -0.5000517 -0.38239774
000290 81 4f 41 be 00 be 75 be a2 5e 2e 3e 51 2a 09 be
       -0.18877985 -0.2399826 0.17028287 -0.13395049
0002a0 0d 69 7f 3d 65 97 52 3e 04 ec 9b bc 69 09 b2 be
       0.062356044 0.20565565 -0.01903344 -0.34772804
0002b0 3c cb 1c 3c 9f b6 9f bd c2 9d d8 be ab 43 6c 3e
       0.009569939 -0.07798504 -0.4230786 0.23072688
0002c0 cd f5 af be b7 c8 01 be 1f 57 ae 3e b7 5a c6 bd
       -0.3436722 -0.12674223 0.34050843 -0.09685271
0002d0 d0 15 dc bd a4 b2 84 be ea 67 97 3e 26 65 db be
       -0.10746348 -0.25917542 0.29571468 -0.42850608
0002e0 41 a0 77 be 70 0f 10 bc 6a 85 16 3e 89 e3 67 be
       -0.24182226 -0.008792743 0.14699331 -0.22645392
0002f0 9d b3 f0 be 67 ef 83 3d 4f 73 87 3e 35 0c fe 3d
       -0.47012034 0.06442147 0.2645516 0.12404672

actor.init_next_embed.0.add_bias._bias f4 [32, 1]
000000 33 27 5e 3d 3b 1c ee 3d c2 af 3b be 45 77 24 bc
       0.054236602 0.11626478 -0.18328765 -0.010038202
000010 a1 ef 4e 3e 42 48 d5 bd 83 fc 8f 3d ae 42 93 3d
       0.20208599 -0.10414173 0.07030585 0.071904525
000020 8f 79 2b be 60 37 f9 3c dc bd a3 3e 40 c4 ec bc
       -0.1674559 0.030421913 0.3198079 -0.028902173
000030 44 0b 9d 3c bc ec 3e bd be 00 9d 3e df 1c af bd
       0.01917041 -0.046612486 0.3066463 -0.085504286
000040 1d d7 0c 3e 33 e1 9b be 2a 65 02 3e 66 72 40 3f
       0.13753934 -0.3044525 0.12733904 0.7517456
000050 ab 16 50 be 24 20 84 3c 2a e2 c1 3e 9d 0f b3 3e
       -0.20321147 0.016128607 0.37867862 0.3497285
000060 9a 52 45 3e cf a8 0d 3c fd 7e 81 be f7 af 29 3d
       0.19269791 0.008646204 -0.25292197 0.04142758
000070 f5 02 ff bc b7 34 b6 bd 51 d1 84 bd b1 0a 04 be
       -0.03112934 -0.08896773 -0.064852364 -0.12894703

actor.init_next_embed.2.module.weight f4 [64, 32]
000000 8f bc 85 3d f9 97 b4 bd 35 60 f8 3d 41 95 3b 3e
       0.06530105 -0.08818049 0.12127725 0.18318655
000010 59 9a ad 3d b6 49 41 3d 49 16 52 be e4 6b 83 bd
       0.08476705 0.047189437 -0.20516314 -0.06417063
000020 35 a1 6b 3d b7 0a 9d 3e 47 b5 49 3e 5d e5 a7 3d
       0.057526786 0.30672237 0.19698058 0.081980444
000030 ae 3d ae 3d e2 84 f8 3d fd 29 c0 bd 3d 49 df bd
       0.08507858 0.121347204 -0.09383009 -0.10902641
000040 17 ac 1b be 83 43 3d 3e 46 7e bb bd 19 97 04 bf
       -0.15202366 0.18482785 -0.09154944 -0.51793057
000050 bb e0 8a 3d 4c 7a 6d 3e 85 63 0e bf de bb a9 bd
       0.06781145 0.23191184 -0.55620605 -0.08287786
000060 63 97 ac bb 27 53 aa 3e 4d ca 97 be 96 12 c1 bd
       -0.00526707 0.33266565 -0.2964653 -0.09427373
000070 44 cb 7a 3e cb aa 83 be a3 32 17 3e b8 5d 4f 3d
       0.24491602 -0.25716242 0.1476541 0.050626487
000080 4d 1f 90 3e 9a 6c 22 bd 31 9b d5 bb 84 c8 00 be
       0.2814888 -0.03965435 -0.0065187444 -0.1257649
000090 67 45 39 3d d4 14 0d be 67 3c 19 be d6 c1 11 3e
       0.045232203 -0.13777477 -0.14964448 0.14234099
0000a0 6e 1e 8e 3e 79 99 f2 3c ef 7d 6a 3e d5 b3 6d 3e
       0.2775759 0.029614197 0.22899602 0.23213132
0000b0 a6 a0 dc bc 2d 04 fe 3d 17 22 cd bd fe 56 da bd
       -0.026932072 0.1240314 -0.10016268 -0.10661124
0000c0 13 33 12 3e 61 0b 41 bc 7e 52 49 be 3f 4b 1c be
       0.14277296 -0.011782498 -0.19660375 -0.15263079
0000d0 64 5b 43 3e d4 38 7a 3d 45 b5 8b 3e bf 95 91 3d
       0.19077832 0.06108935 0.27286735 0.0710864
0000e0 3d b3 9e 3d af d3 6f 3e 01 2a 4a bc ea 0b 9e be
       0.07749031 0.23420595 -0.012339116 -0.30868465
0000f0 46 1e 3d 3d 80 42 af 3e 04 dd a5 bd 4d 1f d3 bc
       0.04617145 0.34230423 -0.08098796 -0.025771761
000100 78 a2 0f 3d 31 9a dc 3c 59 dd 20 bd 9a 04 28 be
       0.03506705 0.026928993 -0.039273594 -0.16408005
000110 41 3a a8 3d 63 ed 64 3e 18 a9 cb 3c c8 fd 42 be
       0.08214236 0.22356181 0.024860904 -0.19042122
000120 83 81 6c 3d 3b 18 0a be 5a 3e 8f 3e 38 6c 4b bd
       0.0577407 -0.13485806 0.27977258 -0.049663752
000130 62 6e c3 3d 1f 49 d8 bd 89 bd 9d 3e ed dd f8 3e
       0.09542538 -0.10560822 0.30808666 0.48606816
000140 8e 76 6f be fb 09 34 3d 7e 26 85 3e 20 43 4b 3f
       -0.23385069 0.04395483 0.2600593 0.793993
000150 da 54 cf bd 66 0a 7c 3d e3 c2 c0 3e 49 06 b4 3e
       -0.10123606 0.061533354 0.37648687 0.35161045
000160 24 30 36 3e 8c 10 ef 3d f3 d7 9b be 1c e7 2b be
       0.17791802 0.11673078 -0.30438194 -0.1678738
000170 1c 5f 97 be 1a 2f 0f be cb 53 98 be 54 96 be bd
       -0.2956475 -0.13982812 -0.2975143 -0.093060166
000180 ad a9 b4 3d e3 76 25 3e d0 b9 8f 3e 75 06 78 bd
       0.088214256 0.16158633 0.2807145 -0.060553033
000190 e2 94 34 bd 6d 4c dc bc 77 26 8b 3e bf 99 00 3f
       -0.0440873 -0.026891911 0.27177784 0.502346
0001a0 a2 c7 b9 3d 33 6d 78 3e 49 6a 82 3d fe 27 93 bd
       0.0907128 0.24260406 0.063679285 -0.07185362
0001b0 46 68 e6 3d 3c 29 56 3e a1 3e 11 3f bf 1d 09 3e
       0.11250357 0.20914167 0.5673619 0.13390253
0001c0 91 3f 16 be 14 a4 2e 3e 49 f6 fc 3d 66 e9 57 3f
       -0.14672686 0.17054778 0.12351663 0.8434051
0001d0 d4 63 48 bd ed 77 1f 3c 5f 22 9a 3d 25 ec 84 3e
       -0.04892333 0.009733182 0.07526087 0.25961414
0001e0 ca 2c 04 3d c2 a9 ec be eb bd 03 be 47 45 9b be
       0.032269277 -0.46223265 -0.12865417 -0.30326292
0001f0 75 52 d1 3d 16 3e ee 3d 91 9a a7 3d 48 40 6e 3e
       0.102208056 0.11632936 0.08183778 0.23266709
000200 14 7a 21 be a4 31 bf be a9 ef ac bd c9 55 84 3e
       -0.15769225 -0.3734256 -0.08444149 0.258467
000210 e7 8a eb 3d 21 08 4c bd 3f 9f 58 3d 42 ac f1 bd
       0.11501103 -0.04981244 0.052886244 -0.11800434
000220 d7 39 da 3d 4f 7e fa bd f3 67 4a be 46 de 33 3e
       0.10655563 -0.12231123 -0.19766216 0.1756526
000230 0e 1d fa bc 24 9a 7f bd bd d5 80 3e 55 cb a2 bc
       -0.030531432 -0.06240286 0.2516307 -0.019872347
000240 02 e2 5b 3e 9c 41 6e 3e 49 16 3f 3d 93 20 a4 bd
       0.21472934 0.23267215 0.046652112 -0.080140255
000250 6d 21 32 be cf 07 b0 3d a2 48 a2 bd 2f d9 51 be
       -0.17395563 0.08595239 -0.0792401 -0.20493005
000260 e8 a0 b1 be 57 46 de bd fa 12 91 3e 66 5f 4d 3e
       -0.34693074 -0.1085326 0.2833479 0.20055923
000270 50 0f fe bc 52 9a 8e bd c9 bc 9f be dd 3d 75 3e
       -0.031013161 -0.06963028 -0.3119872 0.2394938
000280 13 75 f7 bd da 1c 33 3c da 1f 94 be e2 f8 f0 bd
       -0.12082877 0.010932172 -0.2893055 -0.11766221
000290 62 b3 a2 3e 9e 45 84 3e ba e3 0a 3e 37 b3 24 3e
       0.31777483 0.25834364 0.13563433 0.1608399
0002a0 6b 45 82 bd 54 8a 5f 3e d2 c8 53 3d 80 bd 1c bd
       -0.06360897 0.21830112 0.05170519 -0.03826666
0002b0 e7 98 38 3d 1c 75 6e 3e c7 8e 91 3c 54 15 dc 3e
       0.045067694 0.23286861 0.017768277 0.42985022
0002c0 8b 68 55 3b e4 12 83 3e 18 3a 54 3e ba 23 46 be
       0.0032563533 0.2560035 0.20725286 -0.19349566
0002d0 c8 3d 1f 3d 92 15 e0 bd d0 08 06 be 84 a9 a3 bd
       0.03887728 -0.10941614 -0.13089299 -0.07991317
0002e0 44 70 63 bd ce 92 b6 bd 11 4c 1d 3d 3a 0c b0 3e
       -0.055526987 -0.089147195 0.03840262 0.34384328
0002f0 8f 7f 97 bd a5 f2 ec 3b 69 04 5c 3e 33 d3 e5 bc
       -0.07397377 0.007231074 0.21486057 -0.02805481
000300 fa 13 1c 3d 42 ed 16 3e e0 e8 4f 3d 49 50 54 3e
       0.03810499 0.14738944 0.050759196 0.20733751
000310 ff 12 b2 bd f6 e3 21 3e 1b 75 ba 3d 4a 97 fe be
       -0.086950295 0.15809616 0.09104367 -0.497248
000320 33 bc 19 bd 08 60 6a 3e f7 c7 1e bd 03 c0 68 bd
       -0.037532996 0.22888196 -0.03876492 -0.05682374
000330 a2 46 02 3d 52 2f a0 3d ef bb e6 3e 2c d8 b1 bd
       0.031805642 0.07821526 0.45065257 -0.0868381
000340 8f 0b 06 bd 37 eb 82 3e ed fc 44 be bf e1 c2 3e
       -0.032725867 0.2557008 -0.19237109 0.38062856
000350 07 92 47 3e 37 f0 85 be 81 ac 1d 3b 74 8b 83 3e
       0.19489299 -0.26159832 0.002405912 0.25692332
000360 dc 56 55 be 93 74 aa 3d 89 4c e6 3c 65 81 5e be
       -0.20833915 0.08323016 0.028112667 -0.21729048
000370 2b 8e a0 be 98 62 33 3d b4 6f a1 3e 58 06 7a bd
       -0.31358466 0.0437952 0.31530535 -0.061041206
000380 dc e5 01 3c 34 2c b9 3d 57 7a 88 3c 7a 46 57 3d
       0.007928338 0.09041634 0.016659899 0.052557446
000390 13 62 35 3e ec 8e 9c be dd 6f f3 be fc d2 9f be
       0.17713194 -0.3057779 -0.47546282 -0.31215656
0003a0 2f 34 06 3e 09 34 d1 bc 72 a1 39 3f 7a 03 a8 bd
       0.13105844 -0.025537508 0.7251197 -0.08203788
0003b0 88 29 d0 3d 37 4e f7 3e 98 01 56 3e 15 92 d9 3d
       0.101641715 0.4830186 0.20899045 0.10623566
0003c0 ac 09 1b 3e 5d c2 74 3e 21 aa c6 3e a8 b9 b0 bd
       0.15140408 0.23902269 0.38801673 -0.08629161
0003d0 9e e6 b5 be b6 c9 97 be 6a 25 a5 be ae a8 15 bc
       -0.3552751 -0.2964608 -0.32255107 -0.009134455
0003e0 42 bd 1d 3e c2 b4 07 3d fa f9 1d 3e b1 85 a0 bd
       0.15404227 0.03313137 0.1542739 -0.078379996
0003f0 f9 1d 96 bc dd 80 41 3e 1a d5 1d bc d4 12 01 3f
       -0.018324839 0.18896814 -0.009633327 0.50419354

actor.init_next_embed.2.add_bias._bias f4 [64, 1]
000000 07 32 e4 bd a3 b4 90 be f0 e2 57 3f f5 df 45 3f
       -0.111423545 -0.28262815 0.84330654 0.77294856
000010 02 c7 8c 3d 3c ad 86 bd fc 88 24 3e e2 36 9a bd
       0.06873895 -0.065760106 0.1606788 -0.07529999
000020 dd 09 0e be ff 6e ea bd 33 e3 37 be e7 1c 2c 3e
       -0.1387095 -0.11446952 -0.17957763 0.168079
000030 82 06 45 3f 04 c6 30 bf ee 6b 89 bf db 60 86 be
       0.76963055 -0.6905215 -1.0736063 -0.2624577
000040 f0 9c a4 3e 80 b4 3d bf f0 14 cd be 4b 1a e1 3e
       0.32150984 -0.74103546 -0.40055037 0.43965372
000050 d3 39 0d bd 65 9a 0d 3f 0f 39 8c bd ad 15 01 be
       -0.034478974 0.5531371 -0.068468206 -0.12605925
000060 b5 9a ab be 58 7a 21 bf 7d 51 90 be a0 12 a2 3d
       -0.3351647 -0.63077307 -0.2818717 0.07913709
000070 0b 0a f4 3d fb df b6 be 92 e4 a6 be 1e 5a 25 3c
       0.11915978 -0.3571776 -0.3259626 0.010092286
000080 ce 84 07 bf d6 a0 a8 3e 48 98 64 3f 66 df 01 3e
       -0.5293702 0.32935208 0.8929486 0.12682876
000090 d2 89 5c 3f f7 19 b6 3c df 6f 59 be 81 3d fe 3e
       0.861478 0.022229178 -0.21234082 0.496563
0000a0 fb ac 8a 3c 30 16 cb b9 61 36 2f 3d 19 de bc 3e
       0.016928187 -0.00038735708 0.04277647 0.36888197
0000b0 13 d8 bd 3d 31 ea 66 3f 6a a9 4a 3f 29 a6 67 3f
       0.092697285 0.902011 0.79164755 0.90487915
0000c0 81 7b e1 3e d6 24 87 3d ef 89 03 3e 92 a5 de 3e
       0.44039539 0.06598823 0.12845586 0.43485695
0000d0 1b 23 ca 3e de 3d 04 3e 24 7f db 3e 8d e3 d7 be
       0.39479908 0.12914225 0.42870438 -0.42165795
0000e0 b2 bd 36 bf a8 0c 6c bc a8 7a a6 be b9 ff 76 be
       -0.713832 -0.014407314 -0.32515454 -0.24120988
0000f0 b8 c1 a0 be 02 47 c6 3e c4 12 aa 3e 35 64 19 3d
       -0.31397796 0.3872605 0.33217442 0.03744908
